<net batch="1" name="MobileNet-SSD" version="2">
	<layers>
		<layer id="1" name="data" precision="FP32" type="Input">
			<output>
				<port id="1">
					<dim>1</dim>
					<dim>3</dim>
					<dim>300</dim>
					<dim>300</dim>
				</port>
			</output>
		</layer>
		<layer id="2" name="conv0" precision="FP32" type="Convolution">
			<data dilation-x="1" dilation-y="1" group="1" kernel-x="3" kernel-y="3" output="32" pad-x="1" pad-y="1" stride-x="2" stride-y="2"/>
			<input>
				<port id="2">
					<dim>1</dim>
					<dim>3</dim>
					<dim>300</dim>
					<dim>300</dim>
				</port>
			</input>
			<output>
				<port id="3">
					<dim>1</dim>
					<dim>32</dim>
					<dim>150</dim>
					<dim>150</dim>
				</port>
			</output>
			<weights offset="0" size="3456"/>
			<biases offset="3456" size="128"/>
		</layer>
		<layer id="3" name="conv0_relu" precision="FP32" type="ReLU">
			<input>
				<port id="4">
					<dim>1</dim>
					<dim>32</dim>
					<dim>150</dim>
					<dim>150</dim>
				</port>
			</input>
			<output>
				<port id="5">
					<dim>1</dim>
					<dim>32</dim>
					<dim>150</dim>
					<dim>150</dim>
				</port>
			</output>
		</layer>
		<layer id="4" name="conv1_dw" precision="FP32" type="Convolution">
			<data dilation-x="1" dilation-y="1" group="32" kernel-x="3" kernel-y="3" output="32" pad-x="1" pad-y="1" stride-x="1" stride-y="1"/>
			<input>
				<port id="6">
					<dim>1</dim>
					<dim>32</dim>
					<dim>150</dim>
					<dim>150</dim>
				</port>
			</input>
			<output>
				<port id="7">
					<dim>1</dim>
					<dim>32</dim>
					<dim>150</dim>
					<dim>150</dim>
				</port>
			</output>
			<weights offset="3584" size="1152"/>
			<biases offset="4736" size="128"/>
		</layer>
		<layer id="5" name="conv1_dw_relu" precision="FP32" type="ReLU">
			<input>
				<port id="8">
					<dim>1</dim>
					<dim>32</dim>
					<dim>150</dim>
					<dim>150</dim>
				</port>
			</input>
			<output>
				<port id="9">
					<dim>1</dim>
					<dim>32</dim>
					<dim>150</dim>
					<dim>150</dim>
				</port>
			</output>
		</layer>
		<layer id="6" name="conv1" precision="FP32" type="Convolution">
			<data dilation-x="1" dilation-y="1" group="1" kernel-x="1" kernel-y="1" output="64" pad-x="0" pad-y="0" stride-x="1" stride-y="1"/>
			<input>
				<port id="10">
					<dim>1</dim>
					<dim>32</dim>
					<dim>150</dim>
					<dim>150</dim>
				</port>
			</input>
			<output>
				<port id="11">
					<dim>1</dim>
					<dim>64</dim>
					<dim>150</dim>
					<dim>150</dim>
				</port>
			</output>
			<weights offset="4864" size="8192"/>
			<biases offset="13056" size="256"/>
		</layer>
		<layer id="7" name="conv1_relu" precision="FP32" type="ReLU">
			<input>
				<port id="12">
					<dim>1</dim>
					<dim>64</dim>
					<dim>150</dim>
					<dim>150</dim>
				</port>
			</input>
			<output>
				<port id="13">
					<dim>1</dim>
					<dim>64</dim>
					<dim>150</dim>
					<dim>150</dim>
				</port>
			</output>
		</layer>
		<layer id="8" name="conv2_dw" precision="FP32" type="Convolution">
			<data dilation-x="1" dilation-y="1" group="64" kernel-x="3" kernel-y="3" output="64" pad-x="1" pad-y="1" stride-x="2" stride-y="2"/>
			<input>
				<port id="14">
					<dim>1</dim>
					<dim>64</dim>
					<dim>150</dim>
					<dim>150</dim>
				</port>
			</input>
			<output>
				<port id="15">
					<dim>1</dim>
					<dim>64</dim>
					<dim>76</dim>
					<dim>76</dim>
				</port>
			</output>
			<weights offset="13312" size="2304"/>
			<biases offset="15616" size="256"/>
		</layer>
		<layer id="9" name="conv2_dw_relu" precision="FP32" type="ReLU">
			<input>
				<port id="16">
					<dim>1</dim>
					<dim>64</dim>
					<dim>76</dim>
					<dim>76</dim>
				</port>
			</input>
			<output>
				<port id="17">
					<dim>1</dim>
					<dim>64</dim>
					<dim>76</dim>
					<dim>76</dim>
				</port>
			</output>
		</layer>
		<layer id="10" name="conv2" precision="FP32" type="Convolution">
			<data dilation-x="1" dilation-y="1" group="1" kernel-x="1" kernel-y="1" output="128" pad-x="0" pad-y="0" stride-x="1" stride-y="1"/>
			<input>
				<port id="18">
					<dim>1</dim>
					<dim>64</dim>
					<dim>76</dim>
					<dim>76</dim>
				</port>
			</input>
			<output>
				<port id="19">
					<dim>1</dim>
					<dim>128</dim>
					<dim>76</dim>
					<dim>76</dim>
				</port>
			</output>
			<weights offset="15872" size="32768"/>
			<biases offset="48640" size="512"/>
		</layer>
		<layer id="11" name="conv2_relu" precision="FP32" type="ReLU">
			<input>
				<port id="20">
					<dim>1</dim>
					<dim>128</dim>
					<dim>76</dim>
					<dim>76</dim>
				</port>
			</input>
			<output>
				<port id="21">
					<dim>1</dim>
					<dim>128</dim>
					<dim>76</dim>
					<dim>76</dim>
				</port>
			</output>
		</layer>
		<layer id="12" name="conv3_dw" precision="FP32" type="Convolution">
			<data dilation-x="1" dilation-y="1" group="128" kernel-x="3" kernel-y="3" output="128" pad-x="1" pad-y="1" stride-x="1" stride-y="1"/>
			<input>
				<port id="22">
					<dim>1</dim>
					<dim>128</dim>
					<dim>76</dim>
					<dim>76</dim>
				</port>
			</input>
			<output>
				<port id="23">
					<dim>1</dim>
					<dim>128</dim>
					<dim>76</dim>
					<dim>76</dim>
				</port>
			</output>
			<weights offset="49152" size="4608"/>
			<biases offset="53760" size="512"/>
		</layer>
		<layer id="13" name="conv3_dw_relu" precision="FP32" type="ReLU">
			<input>
				<port id="24">
					<dim>1</dim>
					<dim>128</dim>
					<dim>76</dim>
					<dim>76</dim>
				</port>
			</input>
			<output>
				<port id="25">
					<dim>1</dim>
					<dim>128</dim>
					<dim>76</dim>
					<dim>76</dim>
				</port>
			</output>
		</layer>
		<layer id="14" name="conv3" precision="FP32" type="Convolution">
			<data dilation-x="1" dilation-y="1" group="1" kernel-x="1" kernel-y="1" output="128" pad-x="0" pad-y="0" stride-x="1" stride-y="1"/>
			<input>
				<port id="26">
					<dim>1</dim>
					<dim>128</dim>
					<dim>76</dim>
					<dim>76</dim>
				</port>
			</input>
			<output>
				<port id="27">
					<dim>1</dim>
					<dim>128</dim>
					<dim>76</dim>
					<dim>76</dim>
				</port>
			</output>
			<weights offset="54272" size="65536"/>
			<biases offset="119808" size="512"/>
		</layer>
		<layer id="15" name="conv3_relu" precision="FP32" type="ReLU">
			<input>
				<port id="28">
					<dim>1</dim>
					<dim>128</dim>
					<dim>76</dim>
					<dim>76</dim>
				</port>
			</input>
			<output>
				<port id="29">
					<dim>1</dim>
					<dim>128</dim>
					<dim>76</dim>
					<dim>76</dim>
				</port>
			</output>
		</layer>
		<layer id="16" name="conv4_dw" precision="FP32" type="Convolution">
			<data dilation-x="1" dilation-y="1" group="128" kernel-x="3" kernel-y="3" output="128" pad-x="1" pad-y="1" stride-x="2" stride-y="2"/>
			<input>
				<port id="30">
					<dim>1</dim>
					<dim>128</dim>
					<dim>76</dim>
					<dim>76</dim>
				</port>
			</input>
			<output>
				<port id="31">
					<dim>1</dim>
					<dim>128</dim>
					<dim>38</dim>
					<dim>38</dim>
				</port>
			</output>
			<weights offset="120320" size="4608"/>
			<biases offset="124928" size="512"/>
		</layer>
		<layer id="17" name="conv4_dw_relu" precision="FP32" type="ReLU">
			<input>
				<port id="32">
					<dim>1</dim>
					<dim>128</dim>
					<dim>38</dim>
					<dim>38</dim>
				</port>
			</input>
			<output>
				<port id="33">
					<dim>1</dim>
					<dim>128</dim>
					<dim>38</dim>
					<dim>38</dim>
				</port>
			</output>
		</layer>
		<layer id="18" name="conv4" precision="FP32" type="Convolution">
			<data dilation-x="1" dilation-y="1" group="1" kernel-x="1" kernel-y="1" output="256" pad-x="0" pad-y="0" stride-x="1" stride-y="1"/>
			<input>
				<port id="34">
					<dim>1</dim>
					<dim>128</dim>
					<dim>38</dim>
					<dim>38</dim>
				</port>
			</input>
			<output>
				<port id="35">
					<dim>1</dim>
					<dim>256</dim>
					<dim>38</dim>
					<dim>38</dim>
				</port>
			</output>
			<weights offset="125440" size="131072"/>
			<biases offset="256512" size="1024"/>
		</layer>
		<layer id="19" name="conv4_relu" precision="FP32" type="ReLU">
			<input>
				<port id="36">
					<dim>1</dim>
					<dim>256</dim>
					<dim>38</dim>
					<dim>38</dim>
				</port>
			</input>
			<output>
				<port id="37">
					<dim>1</dim>
					<dim>256</dim>
					<dim>38</dim>
					<dim>38</dim>
				</port>
			</output>
		</layer>
		<layer id="20" name="conv5_dw" precision="FP32" type="Convolution">
			<data dilation-x="1" dilation-y="1" group="256" kernel-x="3" kernel-y="3" output="256" pad-x="1" pad-y="1" stride-x="1" stride-y="1"/>
			<input>
				<port id="38">
					<dim>1</dim>
					<dim>256</dim>
					<dim>38</dim>
					<dim>38</dim>
				</port>
			</input>
			<output>
				<port id="39">
					<dim>1</dim>
					<dim>256</dim>
					<dim>38</dim>
					<dim>38</dim>
				</port>
			</output>
			<weights offset="257536" size="9216"/>
			<biases offset="266752" size="1024"/>
		</layer>
		<layer id="21" name="conv5_dw_relu" precision="FP32" type="ReLU">
			<input>
				<port id="40">
					<dim>1</dim>
					<dim>256</dim>
					<dim>38</dim>
					<dim>38</dim>
				</port>
			</input>
			<output>
				<port id="41">
					<dim>1</dim>
					<dim>256</dim>
					<dim>38</dim>
					<dim>38</dim>
				</port>
			</output>
		</layer>
		<layer id="22" name="conv5" precision="FP32" type="Convolution">
			<data dilation-x="1" dilation-y="1" group="1" kernel-x="1" kernel-y="1" output="256" pad-x="0" pad-y="0" stride-x="1" stride-y="1"/>
			<input>
				<port id="42">
					<dim>1</dim>
					<dim>256</dim>
					<dim>38</dim>
					<dim>38</dim>
				</port>
			</input>
			<output>
				<port id="43">
					<dim>1</dim>
					<dim>256</dim>
					<dim>38</dim>
					<dim>38</dim>
				</port>
			</output>
			<weights offset="267776" size="262144"/>
			<biases offset="529920" size="1024"/>
		</layer>
		<layer id="23" name="conv5_relu" precision="FP32" type="ReLU">
			<input>
				<port id="44">
					<dim>1</dim>
					<dim>256</dim>
					<dim>38</dim>
					<dim>38</dim>
				</port>
			</input>
			<output>
				<port id="45">
					<dim>1</dim>
					<dim>256</dim>
					<dim>38</dim>
					<dim>38</dim>
				</port>
			</output>
		</layer>
		<layer id="24" name="conv6_dw" precision="FP32" type="Convolution">
			<data dilation-x="1" dilation-y="1" group="256" kernel-x="3" kernel-y="3" output="256" pad-x="1" pad-y="1" stride-x="2" stride-y="2"/>
			<input>
				<port id="46">
					<dim>1</dim>
					<dim>256</dim>
					<dim>38</dim>
					<dim>38</dim>
				</port>
			</input>
			<output>
				<port id="47">
					<dim>1</dim>
					<dim>256</dim>
					<dim>20</dim>
					<dim>20</dim>
				</port>
			</output>
			<weights offset="530944" size="9216"/>
			<biases offset="540160" size="1024"/>
		</layer>
		<layer id="25" name="conv6_dw_relu" precision="FP32" type="ReLU">
			<input>
				<port id="48">
					<dim>1</dim>
					<dim>256</dim>
					<dim>20</dim>
					<dim>20</dim>
				</port>
			</input>
			<output>
				<port id="49">
					<dim>1</dim>
					<dim>256</dim>
					<dim>20</dim>
					<dim>20</dim>
				</port>
			</output>
		</layer>
		<layer id="26" name="conv6" precision="FP32" type="Convolution">
			<data dilation-x="1" dilation-y="1" group="1" kernel-x="1" kernel-y="1" output="512" pad-x="0" pad-y="0" stride-x="1" stride-y="1"/>
			<input>
				<port id="50">
					<dim>1</dim>
					<dim>256</dim>
					<dim>20</dim>
					<dim>20</dim>
				</port>
			</input>
			<output>
				<port id="51">
					<dim>1</dim>
					<dim>512</dim>
					<dim>20</dim>
					<dim>20</dim>
				</port>
			</output>
			<weights offset="541184" size="524288"/>
			<biases offset="1065472" size="2048"/>
		</layer>
		<layer id="27" name="conv6_relu" precision="FP32" type="ReLU">
			<input>
				<port id="52">
					<dim>1</dim>
					<dim>512</dim>
					<dim>20</dim>
					<dim>20</dim>
				</port>
			</input>
			<output>
				<port id="53">
					<dim>1</dim>
					<dim>512</dim>
					<dim>20</dim>
					<dim>20</dim>
				</port>
			</output>
		</layer>
		<layer id="28" name="conv7_dw" precision="FP32" type="Convolution">
			<data dilation-x="1" dilation-y="1" group="512" kernel-x="3" kernel-y="3" output="512" pad-x="1" pad-y="1" stride-x="1" stride-y="1"/>
			<input>
				<port id="54">
					<dim>1</dim>
					<dim>512</dim>
					<dim>20</dim>
					<dim>20</dim>
				</port>
			</input>
			<output>
				<port id="55">
					<dim>1</dim>
					<dim>512</dim>
					<dim>20</dim>
					<dim>20</dim>
				</port>
			</output>
			<weights offset="1067520" size="18432"/>
			<biases offset="1085952" size="2048"/>
		</layer>
		<layer id="29" name="conv7_dw_relu" precision="FP32" type="ReLU">
			<input>
				<port id="56">
					<dim>1</dim>
					<dim>512</dim>
					<dim>20</dim>
					<dim>20</dim>
				</port>
			</input>
			<output>
				<port id="57">
					<dim>1</dim>
					<dim>512</dim>
					<dim>20</dim>
					<dim>20</dim>
				</port>
			</output>
		</layer>
		<layer id="30" name="conv7" precision="FP32" type="Convolution">
			<data dilation-x="1" dilation-y="1" group="1" kernel-x="1" kernel-y="1" output="512" pad-x="0" pad-y="0" stride-x="1" stride-y="1"/>
			<input>
				<port id="58">
					<dim>1</dim>
					<dim>512</dim>
					<dim>20</dim>
					<dim>20</dim>
				</port>
			</input>
			<output>
				<port id="59">
					<dim>1</dim>
					<dim>512</dim>
					<dim>20</dim>
					<dim>20</dim>
				</port>
			</output>
			<weights offset="1088000" size="1048576"/>
			<biases offset="2136576" size="2048"/>
		</layer>
		<layer id="31" name="conv7_relu" precision="FP32" type="ReLU">
			<input>
				<port id="60">
					<dim>1</dim>
					<dim>512</dim>
					<dim>20</dim>
					<dim>20</dim>
				</port>
			</input>
			<output>
				<port id="61">
					<dim>1</dim>
					<dim>512</dim>
					<dim>20</dim>
					<dim>20</dim>
				</port>
			</output>
		</layer>
		<layer id="32" name="conv8_dw" precision="FP32" type="Convolution">
			<data dilation-x="1" dilation-y="1" group="512" kernel-x="3" kernel-y="3" output="512" pad-x="1" pad-y="1" stride-x="1" stride-y="1"/>
			<input>
				<port id="62">
					<dim>1</dim>
					<dim>512</dim>
					<dim>20</dim>
					<dim>20</dim>
				</port>
			</input>
			<output>
				<port id="63">
					<dim>1</dim>
					<dim>512</dim>
					<dim>20</dim>
					<dim>20</dim>
				</port>
			</output>
			<weights offset="2138624" size="18432"/>
			<biases offset="2157056" size="2048"/>
		</layer>
		<layer id="33" name="conv8_dw_relu" precision="FP32" type="ReLU">
			<input>
				<port id="64">
					<dim>1</dim>
					<dim>512</dim>
					<dim>20</dim>
					<dim>20</dim>
				</port>
			</input>
			<output>
				<port id="65">
					<dim>1</dim>
					<dim>512</dim>
					<dim>20</dim>
					<dim>20</dim>
				</port>
			</output>
		</layer>
		<layer id="34" name="conv8" precision="FP32" type="Convolution">
			<data dilation-x="1" dilation-y="1" group="1" kernel-x="1" kernel-y="1" output="512" pad-x="0" pad-y="0" stride-x="1" stride-y="1"/>
			<input>
				<port id="66">
					<dim>1</dim>
					<dim>512</dim>
					<dim>20</dim>
					<dim>20</dim>
				</port>
			</input>
			<output>
				<port id="67">
					<dim>1</dim>
					<dim>512</dim>
					<dim>20</dim>
					<dim>20</dim>
				</port>
			</output>
			<weights offset="2159104" size="1048576"/>
			<biases offset="3207680" size="2048"/>
		</layer>
		<layer id="35" name="conv8_relu" precision="FP32" type="ReLU">
			<input>
				<port id="68">
					<dim>1</dim>
					<dim>512</dim>
					<dim>20</dim>
					<dim>20</dim>
				</port>
			</input>
			<output>
				<port id="69">
					<dim>1</dim>
					<dim>512</dim>
					<dim>20</dim>
					<dim>20</dim>
				</port>
			</output>
		</layer>
		<layer id="36" name="conv9_dw" precision="FP32" type="Convolution">
			<data dilation-x="1" dilation-y="1" group="512" kernel-x="3" kernel-y="3" output="512" pad-x="1" pad-y="1" stride-x="1" stride-y="1"/>
			<input>
				<port id="70">
					<dim>1</dim>
					<dim>512</dim>
					<dim>20</dim>
					<dim>20</dim>
				</port>
			</input>
			<output>
				<port id="71">
					<dim>1</dim>
					<dim>512</dim>
					<dim>20</dim>
					<dim>20</dim>
				</port>
			</output>
			<weights offset="3209728" size="18432"/>
			<biases offset="3228160" size="2048"/>
		</layer>
		<layer id="37" name="conv9_dw_relu" precision="FP32" type="ReLU">
			<input>
				<port id="72">
					<dim>1</dim>
					<dim>512</dim>
					<dim>20</dim>
					<dim>20</dim>
				</port>
			</input>
			<output>
				<port id="73">
					<dim>1</dim>
					<dim>512</dim>
					<dim>20</dim>
					<dim>20</dim>
				</port>
			</output>
		</layer>
		<layer id="38" name="conv9" precision="FP32" type="Convolution">
			<data dilation-x="1" dilation-y="1" group="1" kernel-x="1" kernel-y="1" output="512" pad-x="0" pad-y="0" stride-x="1" stride-y="1"/>
			<input>
				<port id="74">
					<dim>1</dim>
					<dim>512</dim>
					<dim>20</dim>
					<dim>20</dim>
				</port>
			</input>
			<output>
				<port id="75">
					<dim>1</dim>
					<dim>512</dim>
					<dim>20</dim>
					<dim>20</dim>
				</port>
			</output>
			<weights offset="3230208" size="1048576"/>
			<biases offset="4278784" size="2048"/>
		</layer>
		<layer id="39" name="conv9_relu" precision="FP32" type="ReLU">
			<input>
				<port id="76">
					<dim>1</dim>
					<dim>512</dim>
					<dim>20</dim>
					<dim>20</dim>
				</port>
			</input>
			<output>
				<port id="77">
					<dim>1</dim>
					<dim>512</dim>
					<dim>20</dim>
					<dim>20</dim>
				</port>
			</output>
		</layer>
		<layer id="40" name="conv10_dw" precision="FP32" type="Convolution">
			<data dilation-x="1" dilation-y="1" group="512" kernel-x="3" kernel-y="3" output="512" pad-x="1" pad-y="1" stride-x="1" stride-y="1"/>
			<input>
				<port id="78">
					<dim>1</dim>
					<dim>512</dim>
					<dim>20</dim>
					<dim>20</dim>
				</port>
			</input>
			<output>
				<port id="79">
					<dim>1</dim>
					<dim>512</dim>
					<dim>20</dim>
					<dim>20</dim>
				</port>
			</output>
			<weights offset="4280832" size="18432"/>
			<biases offset="4299264" size="2048"/>
		</layer>
		<layer id="41" name="conv10_dw_relu" precision="FP32" type="ReLU">
			<input>
				<port id="80">
					<dim>1</dim>
					<dim>512</dim>
					<dim>20</dim>
					<dim>20</dim>
				</port>
			</input>
			<output>
				<port id="81">
					<dim>1</dim>
					<dim>512</dim>
					<dim>20</dim>
					<dim>20</dim>
				</port>
			</output>
		</layer>
		<layer id="42" name="conv10" precision="FP32" type="Convolution">
			<data dilation-x="1" dilation-y="1" group="1" kernel-x="1" kernel-y="1" output="512" pad-x="0" pad-y="0" stride-x="1" stride-y="1"/>
			<input>
				<port id="82">
					<dim>1</dim>
					<dim>512</dim>
					<dim>20</dim>
					<dim>20</dim>
				</port>
			</input>
			<output>
				<port id="83">
					<dim>1</dim>
					<dim>512</dim>
					<dim>20</dim>
					<dim>20</dim>
				</port>
			</output>
			<weights offset="4301312" size="1048576"/>
			<biases offset="5349888" size="2048"/>
		</layer>
		<layer id="43" name="conv10_relu" precision="FP32" type="ReLU">
			<input>
				<port id="84">
					<dim>1</dim>
					<dim>512</dim>
					<dim>20</dim>
					<dim>20</dim>
				</port>
			</input>
			<output>
				<port id="85">
					<dim>1</dim>
					<dim>512</dim>
					<dim>20</dim>
					<dim>20</dim>
				</port>
			</output>
		</layer>
		<layer id="44" name="conv11_dw" precision="FP32" type="Convolution">
			<data dilation-x="1" dilation-y="1" group="512" kernel-x="3" kernel-y="3" output="512" pad-x="1" pad-y="1" stride-x="1" stride-y="1"/>
			<input>
				<port id="86">
					<dim>1</dim>
					<dim>512</dim>
					<dim>20</dim>
					<dim>20</dim>
				</port>
			</input>
			<output>
				<port id="87">
					<dim>1</dim>
					<dim>512</dim>
					<dim>20</dim>
					<dim>20</dim>
				</port>
			</output>
			<weights offset="5351936" size="18432"/>
			<biases offset="5370368" size="2048"/>
		</layer>
		<layer id="45" name="conv11_dw_relu" precision="FP32" type="ReLU">
			<input>
				<port id="88">
					<dim>1</dim>
					<dim>512</dim>
					<dim>20</dim>
					<dim>20</dim>
				</port>
			</input>
			<output>
				<port id="89">
					<dim>1</dim>
					<dim>512</dim>
					<dim>20</dim>
					<dim>20</dim>
				</port>
			</output>
		</layer>
		<layer id="46" name="conv11" precision="FP32" type="Convolution">
			<data dilation-x="1" dilation-y="1" group="1" kernel-x="1" kernel-y="1" output="512" pad-x="0" pad-y="0" stride-x="1" stride-y="1"/>
			<input>
				<port id="90">
					<dim>1</dim>
					<dim>512</dim>
					<dim>20</dim>
					<dim>20</dim>
				</port>
			</input>
			<output>
				<port id="91">
					<dim>1</dim>
					<dim>512</dim>
					<dim>20</dim>
					<dim>20</dim>
				</port>
			</output>
			<weights offset="5372416" size="1048576"/>
			<biases offset="6420992" size="2048"/>
		</layer>
		<layer id="47" name="conv11_relu" precision="FP32" type="ReLU">
			<input>
				<port id="92">
					<dim>1</dim>
					<dim>512</dim>
					<dim>20</dim>
					<dim>20</dim>
				</port>
			</input>
			<output>
				<port id="93">
					<dim>1</dim>
					<dim>512</dim>
					<dim>20</dim>
					<dim>20</dim>
				</port>
			</output>
		</layer>
		<layer id="48" name="conv12_dw" precision="FP32" type="Convolution">
			<data dilation-x="1" dilation-y="1" group="512" kernel-x="3" kernel-y="3" output="512" pad-x="1" pad-y="1" stride-x="2" stride-y="2"/>
			<input>
				<port id="94">
					<dim>1</dim>
					<dim>512</dim>
					<dim>20</dim>
					<dim>20</dim>
				</port>
			</input>
			<output>
				<port id="95">
					<dim>1</dim>
					<dim>512</dim>
					<dim>10</dim>
					<dim>10</dim>
				</port>
			</output>
			<weights offset="6423040" size="18432"/>
			<biases offset="6441472" size="2048"/>
		</layer>
		<layer id="49" name="conv12_dw_relu" precision="FP32" type="ReLU">
			<input>
				<port id="96">
					<dim>1</dim>
					<dim>512</dim>
					<dim>10</dim>
					<dim>10</dim>
				</port>
			</input>
			<output>
				<port id="97">
					<dim>1</dim>
					<dim>512</dim>
					<dim>10</dim>
					<dim>10</dim>
				</port>
			</output>
		</layer>
		<layer id="50" name="conv12" precision="FP32" type="Convolution">
			<data dilation-x="1" dilation-y="1" group="1" kernel-x="1" kernel-y="1" output="1024" pad-x="0" pad-y="0" stride-x="1" stride-y="1"/>
			<input>
				<port id="98">
					<dim>1</dim>
					<dim>512</dim>
					<dim>10</dim>
					<dim>10</dim>
				</port>
			</input>
			<output>
				<port id="99">
					<dim>1</dim>
					<dim>1024</dim>
					<dim>10</dim>
					<dim>10</dim>
				</port>
			</output>
			<weights offset="6443520" size="2097152"/>
			<biases offset="8540672" size="4096"/>
		</layer>
		<layer id="51" name="conv12_relu" precision="FP32" type="ReLU">
			<input>
				<port id="100">
					<dim>1</dim>
					<dim>1024</dim>
					<dim>10</dim>
					<dim>10</dim>
				</port>
			</input>
			<output>
				<port id="101">
					<dim>1</dim>
					<dim>1024</dim>
					<dim>10</dim>
					<dim>10</dim>
				</port>
			</output>
		</layer>
		<layer id="52" name="conv13_dw" precision="FP32" type="Convolution">
			<data dilation-x="1" dilation-y="1" group="1024" kernel-x="3" kernel-y="3" output="1024" pad-x="1" pad-y="1" stride-x="1" stride-y="1"/>
			<input>
				<port id="102">
					<dim>1</dim>
					<dim>1024</dim>
					<dim>10</dim>
					<dim>10</dim>
				</port>
			</input>
			<output>
				<port id="103">
					<dim>1</dim>
					<dim>1024</dim>
					<dim>10</dim>
					<dim>10</dim>
				</port>
			</output>
			<weights offset="8544768" size="36864"/>
			<biases offset="8581632" size="4096"/>
		</layer>
		<layer id="53" name="conv13_dw_relu" precision="FP32" type="ReLU">
			<input>
				<port id="104">
					<dim>1</dim>
					<dim>1024</dim>
					<dim>10</dim>
					<dim>10</dim>
				</port>
			</input>
			<output>
				<port id="105">
					<dim>1</dim>
					<dim>1024</dim>
					<dim>10</dim>
					<dim>10</dim>
				</port>
			</output>
		</layer>
		<layer id="54" name="conv13" precision="FP32" type="Convolution">
			<data dilation-x="1" dilation-y="1" group="1" kernel-x="1" kernel-y="1" output="1024" pad-x="0" pad-y="0" stride-x="1" stride-y="1"/>
			<input>
				<port id="106">
					<dim>1</dim>
					<dim>1024</dim>
					<dim>10</dim>
					<dim>10</dim>
				</port>
			</input>
			<output>
				<port id="107">
					<dim>1</dim>
					<dim>1024</dim>
					<dim>10</dim>
					<dim>10</dim>
				</port>
			</output>
			<weights offset="8585728" size="4194304"/>
			<biases offset="12780032" size="4096"/>
		</layer>
		<layer id="55" name="conv13_relu" precision="FP32" type="ReLU">
			<input>
				<port id="108">
					<dim>1</dim>
					<dim>1024</dim>
					<dim>10</dim>
					<dim>10</dim>
				</port>
			</input>
			<output>
				<port id="109">
					<dim>1</dim>
					<dim>1024</dim>
					<dim>10</dim>
					<dim>10</dim>
				</port>
			</output>
		</layer>
		<layer id="56" name="conv14_1" precision="FP32" type="Convolution">
			<data dilation-x="1" dilation-y="1" group="1" kernel-x="1" kernel-y="1" output="256" pad-x="0" pad-y="0" stride-x="1" stride-y="1"/>
			<input>
				<port id="110">
					<dim>1</dim>
					<dim>1024</dim>
					<dim>10</dim>
					<dim>10</dim>
				</port>
			</input>
			<output>
				<port id="111">
					<dim>1</dim>
					<dim>256</dim>
					<dim>10</dim>
					<dim>10</dim>
				</port>
			</output>
			<weights offset="12784128" size="1048576"/>
			<biases offset="13832704" size="1024"/>
		</layer>
		<layer id="57" name="conv14_1_relu" precision="FP32" type="ReLU">
			<input>
				<port id="112">
					<dim>1</dim>
					<dim>256</dim>
					<dim>10</dim>
					<dim>10</dim>
				</port>
			</input>
			<output>
				<port id="113">
					<dim>1</dim>
					<dim>256</dim>
					<dim>10</dim>
					<dim>10</dim>
				</port>
			</output>
		</layer>
		<layer id="58" name="conv14_2" precision="FP32" type="Convolution">
			<data dilation-x="1" dilation-y="1" group="1" kernel-x="3" kernel-y="3" output="512" pad-x="1" pad-y="1" stride-x="2" stride-y="2"/>
			<input>
				<port id="114">
					<dim>1</dim>
					<dim>256</dim>
					<dim>10</dim>
					<dim>10</dim>
				</port>
			</input>
			<output>
				<port id="115">
					<dim>1</dim>
					<dim>512</dim>
					<dim>6</dim>
					<dim>6</dim>
				</port>
			</output>
			<weights offset="13833728" size="4718592"/>
			<biases offset="18552320" size="2048"/>
		</layer>
		<layer id="59" name="conv14_2_relu" precision="FP32" type="ReLU">
			<input>
				<port id="116">
					<dim>1</dim>
					<dim>512</dim>
					<dim>6</dim>
					<dim>6</dim>
				</port>
			</input>
			<output>
				<port id="117">
					<dim>1</dim>
					<dim>512</dim>
					<dim>6</dim>
					<dim>6</dim>
				</port>
			</output>
		</layer>
		<layer id="60" name="conv15_1" precision="FP32" type="Convolution">
			<data dilation-x="1" dilation-y="1" group="1" kernel-x="1" kernel-y="1" output="128" pad-x="0" pad-y="0" stride-x="1" stride-y="1"/>
			<input>
				<port id="118">
					<dim>1</dim>
					<dim>512</dim>
					<dim>6</dim>
					<dim>6</dim>
				</port>
			</input>
			<output>
				<port id="119">
					<dim>1</dim>
					<dim>128</dim>
					<dim>6</dim>
					<dim>6</dim>
				</port>
			</output>
			<weights offset="18554368" size="262144"/>
			<biases offset="18816512" size="512"/>
		</layer>
		<layer id="61" name="conv15_1_relu" precision="FP32" type="ReLU">
			<input>
				<port id="120">
					<dim>1</dim>
					<dim>128</dim>
					<dim>6</dim>
					<dim>6</dim>
				</port>
			</input>
			<output>
				<port id="121">
					<dim>1</dim>
					<dim>128</dim>
					<dim>6</dim>
					<dim>6</dim>
				</port>
			</output>
		</layer>
		<layer id="62" name="conv15_2" precision="FP32" type="Convolution">
			<data dilation-x="1" dilation-y="1" group="1" kernel-x="3" kernel-y="3" output="256" pad-x="1" pad-y="1" stride-x="2" stride-y="2"/>
			<input>
				<port id="122">
					<dim>1</dim>
					<dim>128</dim>
					<dim>6</dim>
					<dim>6</dim>
				</port>
			</input>
			<output>
				<port id="123">
					<dim>1</dim>
					<dim>256</dim>
					<dim>4</dim>
					<dim>4</dim>
				</port>
			</output>
			<weights offset="18817024" size="1179648"/>
			<biases offset="19996672" size="1024"/>
		</layer>
		<layer id="63" name="conv15_2_relu" precision="FP32" type="ReLU">
			<input>
				<port id="124">
					<dim>1</dim>
					<dim>256</dim>
					<dim>4</dim>
					<dim>4</dim>
				</port>
			</input>
			<output>
				<port id="125">
					<dim>1</dim>
					<dim>256</dim>
					<dim>4</dim>
					<dim>4</dim>
				</port>
			</output>
		</layer>
		<layer id="64" name="conv16_1" precision="FP32" type="Convolution">
			<data dilation-x="1" dilation-y="1" group="1" kernel-x="1" kernel-y="1" output="128" pad-x="0" pad-y="0" stride-x="1" stride-y="1"/>
			<input>
				<port id="126">
					<dim>1</dim>
					<dim>256</dim>
					<dim>4</dim>
					<dim>4</dim>
				</port>
			</input>
			<output>
				<port id="127">
					<dim>1</dim>
					<dim>128</dim>
					<dim>4</dim>
					<dim>4</dim>
				</port>
			</output>
			<weights offset="19997696" size="131072"/>
			<biases offset="20128768" size="512"/>
		</layer>
		<layer id="65" name="conv16_1_relu" precision="FP32" type="ReLU">
			<input>
				<port id="128">
					<dim>1</dim>
					<dim>128</dim>
					<dim>4</dim>
					<dim>4</dim>
				</port>
			</input>
			<output>
				<port id="129">
					<dim>1</dim>
					<dim>128</dim>
					<dim>4</dim>
					<dim>4</dim>
				</port>
			</output>
		</layer>
		<layer id="66" name="conv16_2" precision="FP32" type="Convolution">
			<data dilation-x="1" dilation-y="1" group="1" kernel-x="3" kernel-y="3" output="256" pad-x="1" pad-y="1" stride-x="2" stride-y="2"/>
			<input>
				<port id="130">
					<dim>1</dim>
					<dim>128</dim>
					<dim>4</dim>
					<dim>4</dim>
				</port>
			</input>
			<output>
				<port id="131">
					<dim>1</dim>
					<dim>256</dim>
					<dim>2</dim>
					<dim>2</dim>
				</port>
			</output>
			<weights offset="20129280" size="1179648"/>
			<biases offset="21308928" size="1024"/>
		</layer>
		<layer id="67" name="conv16_2_relu" precision="FP32" type="ReLU">
			<input>
				<port id="132">
					<dim>1</dim>
					<dim>256</dim>
					<dim>2</dim>
					<dim>2</dim>
				</port>
			</input>
			<output>
				<port id="133">
					<dim>1</dim>
					<dim>256</dim>
					<dim>2</dim>
					<dim>2</dim>
				</port>
			</output>
		</layer>
		<layer id="68" name="conv17_1" precision="FP32" type="Convolution">
			<data dilation-x="1" dilation-y="1" group="1" kernel-x="1" kernel-y="1" output="64" pad-x="0" pad-y="0" stride-x="1" stride-y="1"/>
			<input>
				<port id="134">
					<dim>1</dim>
					<dim>256</dim>
					<dim>2</dim>
					<dim>2</dim>
				</port>
			</input>
			<output>
				<port id="135">
					<dim>1</dim>
					<dim>64</dim>
					<dim>2</dim>
					<dim>2</dim>
				</port>
			</output>
			<weights offset="21309952" size="65536"/>
			<biases offset="21375488" size="256"/>
		</layer>
		<layer id="69" name="conv17_1_relu" precision="FP32" type="ReLU">
			<input>
				<port id="136">
					<dim>1</dim>
					<dim>64</dim>
					<dim>2</dim>
					<dim>2</dim>
				</port>
			</input>
			<output>
				<port id="137">
					<dim>1</dim>
					<dim>64</dim>
					<dim>2</dim>
					<dim>2</dim>
				</port>
			</output>
		</layer>
		<layer id="70" name="conv17_2" precision="FP32" type="Convolution">
			<data dilation-x="1" dilation-y="1" group="1" kernel-x="3" kernel-y="3" output="128" pad-x="1" pad-y="1" stride-x="2" stride-y="2"/>
			<input>
				<port id="138">
					<dim>1</dim>
					<dim>64</dim>
					<dim>2</dim>
					<dim>2</dim>
				</port>
			</input>
			<output>
				<port id="139">
					<dim>1</dim>
					<dim>128</dim>
					<dim>2</dim>
					<dim>2</dim>
				</port>
			</output>
			<weights offset="21375744" size="294912"/>
			<biases offset="21670656" size="512"/>
		</layer>
		<layer id="71" name="conv17_2_relu" precision="FP32" type="ReLU">
			<input>
				<port id="140">
					<dim>1</dim>
					<dim>128</dim>
					<dim>2</dim>
					<dim>2</dim>
				</port>
			</input>
			<output>
				<port id="141">
					<dim>1</dim>
					<dim>128</dim>
					<dim>2</dim>
					<dim>2</dim>
				</port>
			</output>
		</layer>
		<layer id="72" name="conv11_mbox_loc" precision="FP32" type="Convolution">
			<data dilation-x="1" dilation-y="1" group="1" kernel-x="1" kernel-y="1" output="12" pad-x="0" pad-y="0" stride-x="1" stride-y="1"/>
			<input>
				<port id="142">
					<dim>1</dim>
					<dim>512</dim>
					<dim>20</dim>
					<dim>20</dim>
				</port>
			</input>
			<output>
				<port id="143">
					<dim>1</dim>
					<dim>12</dim>
					<dim>20</dim>
					<dim>20</dim>
				</port>
			</output>
			<weights offset="21671168" size="24576"/>
			<biases offset="21695744" size="48"/>
		</layer>
		<layer id="73" name="conv11_mbox_loc_perm" precision="FP32" type="Permute">
			<data order="0,2,3,1"/>
			<input>
				<port id="144">
					<dim>1</dim>
					<dim>12</dim>
					<dim>20</dim>
					<dim>20</dim>
				</port>
			</input>
			<output>
				<port id="145">
					<dim>1</dim>
					<dim>20</dim>
					<dim>20</dim>
					<dim>12</dim>
				</port>
			</output>
		</layer>
		<layer id="74" name="conv11_mbox_loc_flat" precision="FP32" type="Flatten">
			<data axis="1" dim="0" end_axis="-1" num_axes="0"/>
			<input>
				<port id="146">
					<dim>1</dim>
					<dim>20</dim>
					<dim>20</dim>
					<dim>12</dim>
				</port>
			</input>
			<output>
				<port id="147">
					<dim>1</dim>
					<dim>4800</dim>
				</port>
			</output>
		</layer>
		<layer id="75" name="conv11_mbox_conf" precision="FP32" type="Convolution">
			<data dilation-x="1" dilation-y="1" group="1" kernel-x="1" kernel-y="1" output="63" pad-x="0" pad-y="0" stride-x="1" stride-y="1"/>
			<input>
				<port id="148">
					<dim>1</dim>
					<dim>512</dim>
					<dim>20</dim>
					<dim>20</dim>
				</port>
			</input>
			<output>
				<port id="149">
					<dim>1</dim>
					<dim>63</dim>
					<dim>20</dim>
					<dim>20</dim>
				</port>
			</output>
			<weights offset="21695792" size="129024"/>
			<biases offset="21824816" size="252"/>
		</layer>
		<layer id="76" name="conv11_mbox_conf_perm" precision="FP32" type="Permute">
			<data order="0,2,3,1"/>
			<input>
				<port id="150">
					<dim>1</dim>
					<dim>63</dim>
					<dim>20</dim>
					<dim>20</dim>
				</port>
			</input>
			<output>
				<port id="151">
					<dim>1</dim>
					<dim>20</dim>
					<dim>20</dim>
					<dim>63</dim>
				</port>
			</output>
		</layer>
		<layer id="77" name="conv11_mbox_conf_flat" precision="FP32" type="Flatten">
			<data axis="1" dim="0" end_axis="-1" num_axes="0"/>
			<input>
				<port id="152">
					<dim>1</dim>
					<dim>20</dim>
					<dim>20</dim>
					<dim>63</dim>
				</port>
			</input>
			<output>
				<port id="153">
					<dim>1</dim>
					<dim>25200</dim>
				</port>
			</output>
		</layer>
		<layer id="78" name="conv11_mbox_priorbox" precision="FP32" type="PriorBox">
			<data aspect_ratio="2.0" clip="0" flip="1" img_h="0" img_size="0" img_w="0" max_size="" min_size="60" offset="0.5" step="15" step_h="0.0" step_w="0.0" variance="0.1,0.1,0.2,0.2"/>
			<input>
				<port id="154">
					<dim>1</dim>
					<dim>512</dim>
					<dim>20</dim>
					<dim>20</dim>
				</port>
				<port id="155">
					<dim>1</dim>
					<dim>3</dim>
					<dim>300</dim>
					<dim>300</dim>
				</port>
			</input>
			<output>
				<port id="156">
					<dim>1</dim>
					<dim>2</dim>
					<dim>4800</dim>
				</port>
			</output>
		</layer>
		<layer id="79" name="conv13_mbox_loc" precision="FP32" type="Convolution">
			<data dilation-x="1" dilation-y="1" group="1" kernel-x="1" kernel-y="1" output="24" pad-x="0" pad-y="0" stride-x="1" stride-y="1"/>
			<input>
				<port id="157">
					<dim>1</dim>
					<dim>1024</dim>
					<dim>10</dim>
					<dim>10</dim>
				</port>
			</input>
			<output>
				<port id="158">
					<dim>1</dim>
					<dim>24</dim>
					<dim>10</dim>
					<dim>10</dim>
				</port>
			</output>
			<weights offset="21825068" size="98304"/>
			<biases offset="21923372" size="96"/>
		</layer>
		<layer id="80" name="conv13_mbox_loc_perm" precision="FP32" type="Permute">
			<data order="0,2,3,1"/>
			<input>
				<port id="159">
					<dim>1</dim>
					<dim>24</dim>
					<dim>10</dim>
					<dim>10</dim>
				</port>
			</input>
			<output>
				<port id="160">
					<dim>1</dim>
					<dim>10</dim>
					<dim>10</dim>
					<dim>24</dim>
				</port>
			</output>
		</layer>
		<layer id="81" name="conv13_mbox_loc_flat" precision="FP32" type="Flatten">
			<data axis="1" dim="0" end_axis="-1" num_axes="0"/>
			<input>
				<port id="161">
					<dim>1</dim>
					<dim>10</dim>
					<dim>10</dim>
					<dim>24</dim>
				</port>
			</input>
			<output>
				<port id="162">
					<dim>1</dim>
					<dim>2400</dim>
				</port>
			</output>
		</layer>
		<layer id="82" name="conv13_mbox_conf" precision="FP32" type="Convolution">
			<data dilation-x="1" dilation-y="1" group="1" kernel-x="1" kernel-y="1" output="126" pad-x="0" pad-y="0" stride-x="1" stride-y="1"/>
			<input>
				<port id="163">
					<dim>1</dim>
					<dim>1024</dim>
					<dim>10</dim>
					<dim>10</dim>
				</port>
			</input>
			<output>
				<port id="164">
					<dim>1</dim>
					<dim>126</dim>
					<dim>10</dim>
					<dim>10</dim>
				</port>
			</output>
			<weights offset="21923468" size="516096"/>
			<biases offset="22439564" size="504"/>
		</layer>
		<layer id="83" name="conv13_mbox_conf_perm" precision="FP32" type="Permute">
			<data order="0,2,3,1"/>
			<input>
				<port id="165">
					<dim>1</dim>
					<dim>126</dim>
					<dim>10</dim>
					<dim>10</dim>
				</port>
			</input>
			<output>
				<port id="166">
					<dim>1</dim>
					<dim>10</dim>
					<dim>10</dim>
					<dim>126</dim>
				</port>
			</output>
		</layer>
		<layer id="84" name="conv13_mbox_conf_flat" precision="FP32" type="Flatten">
			<data axis="1" dim="0" end_axis="-1" num_axes="0"/>
			<input>
				<port id="167">
					<dim>1</dim>
					<dim>10</dim>
					<dim>10</dim>
					<dim>126</dim>
				</port>
			</input>
			<output>
				<port id="168">
					<dim>1</dim>
					<dim>12600</dim>
				</port>
			</output>
		</layer>
		<layer id="85" name="conv13_mbox_priorbox" precision="FP32" type="PriorBox">
			<data aspect_ratio="2.0,3.0" clip="0" flip="1" img_h="0" img_size="0" img_w="0" max_size="150" min_size="105" offset="0.5" step="30" step_h="0.0" step_w="0.0" variance="0.1,0.1,0.2,0.2"/>
			<input>
				<port id="169">
					<dim>1</dim>
					<dim>1024</dim>
					<dim>10</dim>
					<dim>10</dim>
				</port>
				<port id="170">
					<dim>1</dim>
					<dim>3</dim>
					<dim>300</dim>
					<dim>300</dim>
				</port>
			</input>
			<output>
				<port id="171">
					<dim>1</dim>
					<dim>2</dim>
					<dim>2400</dim>
				</port>
			</output>
		</layer>
		<layer id="86" name="conv14_2_mbox_loc" precision="FP32" type="Convolution">
			<data dilation-x="1" dilation-y="1" group="1" kernel-x="1" kernel-y="1" output="24" pad-x="0" pad-y="0" stride-x="1" stride-y="1"/>
			<input>
				<port id="172">
					<dim>1</dim>
					<dim>512</dim>
					<dim>6</dim>
					<dim>6</dim>
				</port>
			</input>
			<output>
				<port id="173">
					<dim>1</dim>
					<dim>24</dim>
					<dim>6</dim>
					<dim>6</dim>
				</port>
			</output>
			<weights offset="22440068" size="49152"/>
			<biases offset="22489220" size="96"/>
		</layer>
		<layer id="87" name="conv14_2_mbox_loc_perm" precision="FP32" type="Permute">
			<data order="0,2,3,1"/>
			<input>
				<port id="174">
					<dim>1</dim>
					<dim>24</dim>
					<dim>6</dim>
					<dim>6</dim>
				</port>
			</input>
			<output>
				<port id="175">
					<dim>1</dim>
					<dim>6</dim>
					<dim>6</dim>
					<dim>24</dim>
				</port>
			</output>
		</layer>
		<layer id="88" name="conv14_2_mbox_loc_flat" precision="FP32" type="Flatten">
			<data axis="1" dim="0" end_axis="-1" num_axes="0"/>
			<input>
				<port id="176">
					<dim>1</dim>
					<dim>6</dim>
					<dim>6</dim>
					<dim>24</dim>
				</port>
			</input>
			<output>
				<port id="177">
					<dim>1</dim>
					<dim>864</dim>
				</port>
			</output>
		</layer>
		<layer id="89" name="conv14_2_mbox_conf" precision="FP32" type="Convolution">
			<data dilation-x="1" dilation-y="1" group="1" kernel-x="1" kernel-y="1" output="126" pad-x="0" pad-y="0" stride-x="1" stride-y="1"/>
			<input>
				<port id="178">
					<dim>1</dim>
					<dim>512</dim>
					<dim>6</dim>
					<dim>6</dim>
				</port>
			</input>
			<output>
				<port id="179">
					<dim>1</dim>
					<dim>126</dim>
					<dim>6</dim>
					<dim>6</dim>
				</port>
			</output>
			<weights offset="22489316" size="258048"/>
			<biases offset="22747364" size="504"/>
		</layer>
		<layer id="90" name="conv14_2_mbox_conf_perm" precision="FP32" type="Permute">
			<data order="0,2,3,1"/>
			<input>
				<port id="180">
					<dim>1</dim>
					<dim>126</dim>
					<dim>6</dim>
					<dim>6</dim>
				</port>
			</input>
			<output>
				<port id="181">
					<dim>1</dim>
					<dim>6</dim>
					<dim>6</dim>
					<dim>126</dim>
				</port>
			</output>
		</layer>
		<layer id="91" name="conv14_2_mbox_conf_flat" precision="FP32" type="Flatten">
			<data axis="1" dim="0" end_axis="-1" num_axes="0"/>
			<input>
				<port id="182">
					<dim>1</dim>
					<dim>6</dim>
					<dim>6</dim>
					<dim>126</dim>
				</port>
			</input>
			<output>
				<port id="183">
					<dim>1</dim>
					<dim>4536</dim>
				</port>
			</output>
		</layer>
		<layer id="92" name="conv14_2_mbox_priorbox" precision="FP32" type="PriorBox">
			<data aspect_ratio="2.0,3.0" clip="0" flip="1" img_h="0" img_size="0" img_w="0" max_size="195" min_size="150" offset="0.5" step="50" step_h="0.0" step_w="0.0" variance="0.1,0.1,0.2,0.2"/>
			<input>
				<port id="184">
					<dim>1</dim>
					<dim>512</dim>
					<dim>6</dim>
					<dim>6</dim>
				</port>
				<port id="185">
					<dim>1</dim>
					<dim>3</dim>
					<dim>300</dim>
					<dim>300</dim>
				</port>
			</input>
			<output>
				<port id="186">
					<dim>1</dim>
					<dim>2</dim>
					<dim>864</dim>
				</port>
			</output>
		</layer>
		<layer id="93" name="conv15_2_mbox_loc" precision="FP32" type="Convolution">
			<data dilation-x="1" dilation-y="1" group="1" kernel-x="1" kernel-y="1" output="24" pad-x="0" pad-y="0" stride-x="1" stride-y="1"/>
			<input>
				<port id="187">
					<dim>1</dim>
					<dim>256</dim>
					<dim>4</dim>
					<dim>4</dim>
				</port>
			</input>
			<output>
				<port id="188">
					<dim>1</dim>
					<dim>24</dim>
					<dim>4</dim>
					<dim>4</dim>
				</port>
			</output>
			<weights offset="22747868" size="24576"/>
			<biases offset="22772444" size="96"/>
		</layer>
		<layer id="94" name="conv15_2_mbox_loc_perm" precision="FP32" type="Permute">
			<data order="0,2,3,1"/>
			<input>
				<port id="189">
					<dim>1</dim>
					<dim>24</dim>
					<dim>4</dim>
					<dim>4</dim>
				</port>
			</input>
			<output>
				<port id="190">
					<dim>1</dim>
					<dim>4</dim>
					<dim>4</dim>
					<dim>24</dim>
				</port>
			</output>
		</layer>
		<layer id="95" name="conv15_2_mbox_loc_flat" precision="FP32" type="Flatten">
			<data axis="1" dim="0" end_axis="-1" num_axes="0"/>
			<input>
				<port id="191">
					<dim>1</dim>
					<dim>4</dim>
					<dim>4</dim>
					<dim>24</dim>
				</port>
			</input>
			<output>
				<port id="192">
					<dim>1</dim>
					<dim>384</dim>
				</port>
			</output>
		</layer>
		<layer id="96" name="conv15_2_mbox_conf" precision="FP32" type="Convolution">
			<data dilation-x="1" dilation-y="1" group="1" kernel-x="1" kernel-y="1" output="126" pad-x="0" pad-y="0" stride-x="1" stride-y="1"/>
			<input>
				<port id="193">
					<dim>1</dim>
					<dim>256</dim>
					<dim>4</dim>
					<dim>4</dim>
				</port>
			</input>
			<output>
				<port id="194">
					<dim>1</dim>
					<dim>126</dim>
					<dim>4</dim>
					<dim>4</dim>
				</port>
			</output>
			<weights offset="22772540" size="129024"/>
			<biases offset="22901564" size="504"/>
		</layer>
		<layer id="97" name="conv15_2_mbox_conf_perm" precision="FP32" type="Permute">
			<data order="0,2,3,1"/>
			<input>
				<port id="195">
					<dim>1</dim>
					<dim>126</dim>
					<dim>4</dim>
					<dim>4</dim>
				</port>
			</input>
			<output>
				<port id="196">
					<dim>1</dim>
					<dim>4</dim>
					<dim>4</dim>
					<dim>126</dim>
				</port>
			</output>
		</layer>
		<layer id="98" name="conv15_2_mbox_conf_flat" precision="FP32" type="Flatten">
			<data axis="1" dim="0" end_axis="-1" num_axes="0"/>
			<input>
				<port id="197">
					<dim>1</dim>
					<dim>4</dim>
					<dim>4</dim>
					<dim>126</dim>
				</port>
			</input>
			<output>
				<port id="198">
					<dim>1</dim>
					<dim>2016</dim>
				</port>
			</output>
		</layer>
		<layer id="99" name="conv15_2_mbox_priorbox" precision="FP32" type="PriorBox">
			<data aspect_ratio="2.0,3.0" clip="0" flip="1" img_h="0" img_size="0" img_w="0" max_size="240" min_size="195" offset="0.5" step="75" step_h="0.0" step_w="0.0" variance="0.1,0.1,0.2,0.2"/>
			<input>
				<port id="199">
					<dim>1</dim>
					<dim>256</dim>
					<dim>4</dim>
					<dim>4</dim>
				</port>
				<port id="200">
					<dim>1</dim>
					<dim>3</dim>
					<dim>300</dim>
					<dim>300</dim>
				</port>
			</input>
			<output>
				<port id="201">
					<dim>1</dim>
					<dim>2</dim>
					<dim>384</dim>
				</port>
			</output>
		</layer>
		<layer id="100" name="conv16_2_mbox_loc" precision="FP32" type="Convolution">
			<data dilation-x="1" dilation-y="1" group="1" kernel-x="1" kernel-y="1" output="24" pad-x="0" pad-y="0" stride-x="1" stride-y="1"/>
			<input>
				<port id="202">
					<dim>1</dim>
					<dim>256</dim>
					<dim>2</dim>
					<dim>2</dim>
				</port>
			</input>
			<output>
				<port id="203">
					<dim>1</dim>
					<dim>24</dim>
					<dim>2</dim>
					<dim>2</dim>
				</port>
			</output>
			<weights offset="22902068" size="24576"/>
			<biases offset="22926644" size="96"/>
		</layer>
		<layer id="101" name="conv16_2_mbox_loc_perm" precision="FP32" type="Permute">
			<data order="0,2,3,1"/>
			<input>
				<port id="204">
					<dim>1</dim>
					<dim>24</dim>
					<dim>2</dim>
					<dim>2</dim>
				</port>
			</input>
			<output>
				<port id="205">
					<dim>1</dim>
					<dim>2</dim>
					<dim>2</dim>
					<dim>24</dim>
				</port>
			</output>
		</layer>
		<layer id="102" name="conv16_2_mbox_loc_flat" precision="FP32" type="Flatten">
			<data axis="1" dim="0" end_axis="-1" num_axes="0"/>
			<input>
				<port id="206">
					<dim>1</dim>
					<dim>2</dim>
					<dim>2</dim>
					<dim>24</dim>
				</port>
			</input>
			<output>
				<port id="207">
					<dim>1</dim>
					<dim>96</dim>
				</port>
			</output>
		</layer>
		<layer id="103" name="conv16_2_mbox_conf" precision="FP32" type="Convolution">
			<data dilation-x="1" dilation-y="1" group="1" kernel-x="1" kernel-y="1" output="126" pad-x="0" pad-y="0" stride-x="1" stride-y="1"/>
			<input>
				<port id="208">
					<dim>1</dim>
					<dim>256</dim>
					<dim>2</dim>
					<dim>2</dim>
				</port>
			</input>
			<output>
				<port id="209">
					<dim>1</dim>
					<dim>126</dim>
					<dim>2</dim>
					<dim>2</dim>
				</port>
			</output>
			<weights offset="22926740" size="129024"/>
			<biases offset="23055764" size="504"/>
		</layer>
		<layer id="104" name="conv16_2_mbox_conf_perm" precision="FP32" type="Permute">
			<data order="0,2,3,1"/>
			<input>
				<port id="210">
					<dim>1</dim>
					<dim>126</dim>
					<dim>2</dim>
					<dim>2</dim>
				</port>
			</input>
			<output>
				<port id="211">
					<dim>1</dim>
					<dim>2</dim>
					<dim>2</dim>
					<dim>126</dim>
				</port>
			</output>
		</layer>
		<layer id="105" name="conv16_2_mbox_conf_flat" precision="FP32" type="Flatten">
			<data axis="1" dim="0" end_axis="-1" num_axes="0"/>
			<input>
				<port id="212">
					<dim>1</dim>
					<dim>2</dim>
					<dim>2</dim>
					<dim>126</dim>
				</port>
			</input>
			<output>
				<port id="213">
					<dim>1</dim>
					<dim>504</dim>
				</port>
			</output>
		</layer>
		<layer id="106" name="conv16_2_mbox_priorbox" precision="FP32" type="PriorBox">
			<data aspect_ratio="2.0,3.0" clip="0" flip="1" img_h="0" img_size="0" img_w="0" max_size="285" min_size="240" offset="0.5" step="150" step_h="0.0" step_w="0.0" variance="0.1,0.1,0.2,0.2"/>
			<input>
				<port id="214">
					<dim>1</dim>
					<dim>256</dim>
					<dim>2</dim>
					<dim>2</dim>
				</port>
				<port id="215">
					<dim>1</dim>
					<dim>3</dim>
					<dim>300</dim>
					<dim>300</dim>
				</port>
			</input>
			<output>
				<port id="216">
					<dim>1</dim>
					<dim>2</dim>
					<dim>96</dim>
				</port>
			</output>
		</layer>
		<layer id="107" name="conv17_2_mbox_loc" precision="FP32" type="Convolution">
			<data dilation-x="1" dilation-y="1" group="1" kernel-x="1" kernel-y="1" output="24" pad-x="0" pad-y="0" stride-x="1" stride-y="1"/>
			<input>
				<port id="217">
					<dim>1</dim>
					<dim>128</dim>
					<dim>2</dim>
					<dim>2</dim>
				</port>
			</input>
			<output>
				<port id="218">
					<dim>1</dim>
					<dim>24</dim>
					<dim>2</dim>
					<dim>2</dim>
				</port>
			</output>
			<weights offset="23056268" size="12288"/>
			<biases offset="23068556" size="96"/>
		</layer>
		<layer id="108" name="conv17_2_mbox_loc_perm" precision="FP32" type="Permute">
			<data order="0,2,3,1"/>
			<input>
				<port id="219">
					<dim>1</dim>
					<dim>24</dim>
					<dim>2</dim>
					<dim>2</dim>
				</port>
			</input>
			<output>
				<port id="220">
					<dim>1</dim>
					<dim>2</dim>
					<dim>2</dim>
					<dim>24</dim>
				</port>
			</output>
		</layer>
		<layer id="109" name="conv17_2_mbox_loc_flat" precision="FP32" type="Flatten">
			<data axis="1" dim="0" end_axis="-1" num_axes="0"/>
			<input>
				<port id="221">
					<dim>1</dim>
					<dim>2</dim>
					<dim>2</dim>
					<dim>24</dim>
				</port>
			</input>
			<output>
				<port id="222">
					<dim>1</dim>
					<dim>96</dim>
				</port>
			</output>
		</layer>
		<layer id="110" name="conv17_2_mbox_conf" precision="FP32" type="Convolution">
			<data dilation-x="1" dilation-y="1" group="1" kernel-x="1" kernel-y="1" output="126" pad-x="0" pad-y="0" stride-x="1" stride-y="1"/>
			<input>
				<port id="223">
					<dim>1</dim>
					<dim>128</dim>
					<dim>2</dim>
					<dim>2</dim>
				</port>
			</input>
			<output>
				<port id="224">
					<dim>1</dim>
					<dim>126</dim>
					<dim>2</dim>
					<dim>2</dim>
				</port>
			</output>
			<weights offset="23068652" size="64512"/>
			<biases offset="23133164" size="504"/>
		</layer>
		<layer id="111" name="conv17_2_mbox_conf_perm" precision="FP32" type="Permute">
			<data order="0,2,3,1"/>
			<input>
				<port id="225">
					<dim>1</dim>
					<dim>126</dim>
					<dim>2</dim>
					<dim>2</dim>
				</port>
			</input>
			<output>
				<port id="226">
					<dim>1</dim>
					<dim>2</dim>
					<dim>2</dim>
					<dim>126</dim>
				</port>
			</output>
		</layer>
		<layer id="112" name="conv17_2_mbox_conf_flat" precision="FP32" type="Flatten">
			<data axis="1" dim="0" end_axis="-1" num_axes="0"/>
			<input>
				<port id="227">
					<dim>1</dim>
					<dim>2</dim>
					<dim>2</dim>
					<dim>126</dim>
				</port>
			</input>
			<output>
				<port id="228">
					<dim>1</dim>
					<dim>504</dim>
				</port>
			</output>
		</layer>
		<layer id="113" name="conv17_2_mbox_priorbox" precision="FP32" type="PriorBox">
			<data aspect_ratio="2.0,3.0" clip="0" flip="1" img_h="0" img_size="0" img_w="0" max_size="300" min_size="285" offset="0.5" step="150" step_h="0.0" step_w="0.0" variance="0.1,0.1,0.2,0.2"/>
			<input>
				<port id="229">
					<dim>1</dim>
					<dim>128</dim>
					<dim>2</dim>
					<dim>2</dim>
				</port>
				<port id="230">
					<dim>1</dim>
					<dim>3</dim>
					<dim>300</dim>
					<dim>300</dim>
				</port>
			</input>
			<output>
				<port id="231">
					<dim>1</dim>
					<dim>2</dim>
					<dim>96</dim>
				</port>
			</output>
		</layer>
		<layer id="114" name="mbox_loc" precision="FP32" type="Concat">
			<data axis="1"/>
			<input>
				<port id="232">
					<dim>1</dim>
					<dim>4800</dim>
				</port>
				<port id="233">
					<dim>1</dim>
					<dim>2400</dim>
				</port>
				<port id="234">
					<dim>1</dim>
					<dim>864</dim>
				</port>
				<port id="235">
					<dim>1</dim>
					<dim>384</dim>
				</port>
				<port id="236">
					<dim>1</dim>
					<dim>96</dim>
				</port>
				<port id="237">
					<dim>1</dim>
					<dim>96</dim>
				</port>
			</input>
			<output>
				<port id="238">
					<dim>1</dim>
					<dim>8640</dim>
				</port>
			</output>
		</layer>
		<layer id="115" name="mbox_conf" precision="FP32" type="Concat">
			<data axis="1"/>
			<input>
				<port id="239">
					<dim>1</dim>
					<dim>25200</dim>
				</port>
				<port id="240">
					<dim>1</dim>
					<dim>12600</dim>
				</port>
				<port id="241">
					<dim>1</dim>
					<dim>4536</dim>
				</port>
				<port id="242">
					<dim>1</dim>
					<dim>2016</dim>
				</port>
				<port id="243">
					<dim>1</dim>
					<dim>504</dim>
				</port>
				<port id="244">
					<dim>1</dim>
					<dim>504</dim>
				</port>
			</input>
			<output>
				<port id="245">
					<dim>1</dim>
					<dim>45360</dim>
				</port>
			</output>
		</layer>
		<layer id="116" name="mbox_priorbox" precision="FP32" type="Concat">
			<data axis="2"/>
			<input>
				<port id="246">
					<dim>1</dim>
					<dim>2</dim>
					<dim>4800</dim>
				</port>
				<port id="247">
					<dim>1</dim>
					<dim>2</dim>
					<dim>2400</dim>
				</port>
				<port id="248">
					<dim>1</dim>
					<dim>2</dim>
					<dim>864</dim>
				</port>
				<port id="249">
					<dim>1</dim>
					<dim>2</dim>
					<dim>384</dim>
				</port>
				<port id="250">
					<dim>1</dim>
					<dim>2</dim>
					<dim>96</dim>
				</port>
				<port id="251">
					<dim>1</dim>
					<dim>2</dim>
					<dim>96</dim>
				</port>
			</input>
			<output>
				<port id="252">
					<dim>1</dim>
					<dim>2</dim>
					<dim>8640</dim>
				</port>
			</output>
		</layer>
		<layer id="117" name="mbox_conf_reshape" precision="FP32" type="Reshape">
			<data axis="0" dim="0,-1,21" num_axes="-1"/>
			<input>
				<port id="253">
					<dim>1</dim>
					<dim>45360</dim>
				</port>
			</input>
			<output>
				<port id="254">
					<dim>1</dim>
					<dim>2160</dim>
					<dim>21</dim>
				</port>
			</output>
		</layer>
		<layer id="118" name="mbox_conf_softmax" precision="FP32" type="SoftMax">
			<data axis="2"/>
			<input>
				<port id="255">
					<dim>1</dim>
					<dim>2160</dim>
					<dim>21</dim>
				</port>
			</input>
			<output>
				<port id="256">
					<dim>1</dim>
					<dim>2160</dim>
					<dim>21</dim>
				</port>
			</output>
		</layer>
		<layer id="119" name="mbox_conf_flatten" precision="FP32" type="Flatten">
			<data axis="1" dim="0" end_axis="-1" num_axes="0"/>
			<input>
				<port id="257">
					<dim>1</dim>
					<dim>2160</dim>
					<dim>21</dim>
				</port>
			</input>
			<output>
				<port id="258">
					<dim>1</dim>
					<dim>45360</dim>
				</port>
			</output>
		</layer>
		<layer id="120" name="detection_out" precision="FP32" type="DetectionOutput">
			<data background_label_id="0" code_type="caffe.PriorBoxParameter.CENTER_SIZE" confidence_threshold="0.25" eta="1.0" keep_top_k="100" nms_threshold="0.44999998807907104" num_classes="21" share_location="1" top_k="100" variance_encoded_in_target="0"/>
			<input>
				<port id="259">
					<dim>1</dim>
					<dim>8640</dim>
				</port>
				<port id="260">
					<dim>1</dim>
					<dim>45360</dim>
				</port>
				<port id="261">
					<dim>1</dim>
					<dim>2</dim>
					<dim>8640</dim>
				</port>
			</input>
			<output>
				<port id="262">
					<dim>1</dim>
					<dim>1</dim>
					<dim>100</dim>
					<dim>7</dim>
				</port>
			</output>
		</layer>
	</layers>
	<edges>
		<edge from-layer="1" from-port="1" to-layer="2" to-port="2"/>
		<edge from-layer="2" from-port="3" to-layer="3" to-port="4"/>
		<edge from-layer="3" from-port="5" to-layer="4" to-port="6"/>
		<edge from-layer="4" from-port="7" to-layer="5" to-port="8"/>
		<edge from-layer="5" from-port="9" to-layer="6" to-port="10"/>
		<edge from-layer="6" from-port="11" to-layer="7" to-port="12"/>
		<edge from-layer="7" from-port="13" to-layer="8" to-port="14"/>
		<edge from-layer="8" from-port="15" to-layer="9" to-port="16"/>
		<edge from-layer="9" from-port="17" to-layer="10" to-port="18"/>
		<edge from-layer="10" from-port="19" to-layer="11" to-port="20"/>
		<edge from-layer="11" from-port="21" to-layer="12" to-port="22"/>
		<edge from-layer="12" from-port="23" to-layer="13" to-port="24"/>
		<edge from-layer="13" from-port="25" to-layer="14" to-port="26"/>
		<edge from-layer="14" from-port="27" to-layer="15" to-port="28"/>
		<edge from-layer="15" from-port="29" to-layer="16" to-port="30"/>
		<edge from-layer="16" from-port="31" to-layer="17" to-port="32"/>
		<edge from-layer="17" from-port="33" to-layer="18" to-port="34"/>
		<edge from-layer="18" from-port="35" to-layer="19" to-port="36"/>
		<edge from-layer="19" from-port="37" to-layer="20" to-port="38"/>
		<edge from-layer="20" from-port="39" to-layer="21" to-port="40"/>
		<edge from-layer="21" from-port="41" to-layer="22" to-port="42"/>
		<edge from-layer="22" from-port="43" to-layer="23" to-port="44"/>
		<edge from-layer="23" from-port="45" to-layer="24" to-port="46"/>
		<edge from-layer="24" from-port="47" to-layer="25" to-port="48"/>
		<edge from-layer="25" from-port="49" to-layer="26" to-port="50"/>
		<edge from-layer="26" from-port="51" to-layer="27" to-port="52"/>
		<edge from-layer="27" from-port="53" to-layer="28" to-port="54"/>
		<edge from-layer="28" from-port="55" to-layer="29" to-port="56"/>
		<edge from-layer="29" from-port="57" to-layer="30" to-port="58"/>
		<edge from-layer="30" from-port="59" to-layer="31" to-port="60"/>
		<edge from-layer="31" from-port="61" to-layer="32" to-port="62"/>
		<edge from-layer="32" from-port="63" to-layer="33" to-port="64"/>
		<edge from-layer="33" from-port="65" to-layer="34" to-port="66"/>
		<edge from-layer="34" from-port="67" to-layer="35" to-port="68"/>
		<edge from-layer="35" from-port="69" to-layer="36" to-port="70"/>
		<edge from-layer="36" from-port="71" to-layer="37" to-port="72"/>
		<edge from-layer="37" from-port="73" to-layer="38" to-port="74"/>
		<edge from-layer="38" from-port="75" to-layer="39" to-port="76"/>
		<edge from-layer="39" from-port="77" to-layer="40" to-port="78"/>
		<edge from-layer="40" from-port="79" to-layer="41" to-port="80"/>
		<edge from-layer="41" from-port="81" to-layer="42" to-port="82"/>
		<edge from-layer="42" from-port="83" to-layer="43" to-port="84"/>
		<edge from-layer="43" from-port="85" to-layer="44" to-port="86"/>
		<edge from-layer="44" from-port="87" to-layer="45" to-port="88"/>
		<edge from-layer="45" from-port="89" to-layer="46" to-port="90"/>
		<edge from-layer="46" from-port="91" to-layer="47" to-port="92"/>
		<edge from-layer="47" from-port="93" to-layer="48" to-port="94"/>
		<edge from-layer="48" from-port="95" to-layer="49" to-port="96"/>
		<edge from-layer="49" from-port="97" to-layer="50" to-port="98"/>
		<edge from-layer="50" from-port="99" to-layer="51" to-port="100"/>
		<edge from-layer="51" from-port="101" to-layer="52" to-port="102"/>
		<edge from-layer="52" from-port="103" to-layer="53" to-port="104"/>
		<edge from-layer="53" from-port="105" to-layer="54" to-port="106"/>
		<edge from-layer="54" from-port="107" to-layer="55" to-port="108"/>
		<edge from-layer="55" from-port="109" to-layer="56" to-port="110"/>
		<edge from-layer="56" from-port="111" to-layer="57" to-port="112"/>
		<edge from-layer="57" from-port="113" to-layer="58" to-port="114"/>
		<edge from-layer="58" from-port="115" to-layer="59" to-port="116"/>
		<edge from-layer="59" from-port="117" to-layer="60" to-port="118"/>
		<edge from-layer="60" from-port="119" to-layer="61" to-port="120"/>
		<edge from-layer="61" from-port="121" to-layer="62" to-port="122"/>
		<edge from-layer="62" from-port="123" to-layer="63" to-port="124"/>
		<edge from-layer="63" from-port="125" to-layer="64" to-port="126"/>
		<edge from-layer="64" from-port="127" to-layer="65" to-port="128"/>
		<edge from-layer="65" from-port="129" to-layer="66" to-port="130"/>
		<edge from-layer="66" from-port="131" to-layer="67" to-port="132"/>
		<edge from-layer="67" from-port="133" to-layer="68" to-port="134"/>
		<edge from-layer="68" from-port="135" to-layer="69" to-port="136"/>
		<edge from-layer="69" from-port="137" to-layer="70" to-port="138"/>
		<edge from-layer="70" from-port="139" to-layer="71" to-port="140"/>
		<edge from-layer="47" from-port="93" to-layer="72" to-port="142"/>
		<edge from-layer="72" from-port="143" to-layer="73" to-port="144"/>
		<edge from-layer="73" from-port="145" to-layer="74" to-port="146"/>
		<edge from-layer="47" from-port="93" to-layer="75" to-port="148"/>
		<edge from-layer="75" from-port="149" to-layer="76" to-port="150"/>
		<edge from-layer="76" from-port="151" to-layer="77" to-port="152"/>
		<edge from-layer="47" from-port="93" to-layer="78" to-port="154"/>
		<edge from-layer="1" from-port="1" to-layer="78" to-port="155"/>
		<edge from-layer="55" from-port="109" to-layer="79" to-port="157"/>
		<edge from-layer="79" from-port="158" to-layer="80" to-port="159"/>
		<edge from-layer="80" from-port="160" to-layer="81" to-port="161"/>
		<edge from-layer="55" from-port="109" to-layer="82" to-port="163"/>
		<edge from-layer="82" from-port="164" to-layer="83" to-port="165"/>
		<edge from-layer="83" from-port="166" to-layer="84" to-port="167"/>
		<edge from-layer="55" from-port="109" to-layer="85" to-port="169"/>
		<edge from-layer="1" from-port="1" to-layer="85" to-port="170"/>
		<edge from-layer="59" from-port="117" to-layer="86" to-port="172"/>
		<edge from-layer="86" from-port="173" to-layer="87" to-port="174"/>
		<edge from-layer="87" from-port="175" to-layer="88" to-port="176"/>
		<edge from-layer="59" from-port="117" to-layer="89" to-port="178"/>
		<edge from-layer="89" from-port="179" to-layer="90" to-port="180"/>
		<edge from-layer="90" from-port="181" to-layer="91" to-port="182"/>
		<edge from-layer="59" from-port="117" to-layer="92" to-port="184"/>
		<edge from-layer="1" from-port="1" to-layer="92" to-port="185"/>
		<edge from-layer="63" from-port="125" to-layer="93" to-port="187"/>
		<edge from-layer="93" from-port="188" to-layer="94" to-port="189"/>
		<edge from-layer="94" from-port="190" to-layer="95" to-port="191"/>
		<edge from-layer="63" from-port="125" to-layer="96" to-port="193"/>
		<edge from-layer="96" from-port="194" to-layer="97" to-port="195"/>
		<edge from-layer="97" from-port="196" to-layer="98" to-port="197"/>
		<edge from-layer="63" from-port="125" to-layer="99" to-port="199"/>
		<edge from-layer="1" from-port="1" to-layer="99" to-port="200"/>
		<edge from-layer="67" from-port="133" to-layer="100" to-port="202"/>
		<edge from-layer="100" from-port="203" to-layer="101" to-port="204"/>
		<edge from-layer="101" from-port="205" to-layer="102" to-port="206"/>
		<edge from-layer="67" from-port="133" to-layer="103" to-port="208"/>
		<edge from-layer="103" from-port="209" to-layer="104" to-port="210"/>
		<edge from-layer="104" from-port="211" to-layer="105" to-port="212"/>
		<edge from-layer="67" from-port="133" to-layer="106" to-port="214"/>
		<edge from-layer="1" from-port="1" to-layer="106" to-port="215"/>
		<edge from-layer="71" from-port="141" to-layer="107" to-port="217"/>
		<edge from-layer="107" from-port="218" to-layer="108" to-port="219"/>
		<edge from-layer="108" from-port="220" to-layer="109" to-port="221"/>
		<edge from-layer="71" from-port="141" to-layer="110" to-port="223"/>
		<edge from-layer="110" from-port="224" to-layer="111" to-port="225"/>
		<edge from-layer="111" from-port="226" to-layer="112" to-port="227"/>
		<edge from-layer="71" from-port="141" to-layer="113" to-port="229"/>
		<edge from-layer="1" from-port="1" to-layer="113" to-port="230"/>
		<edge from-layer="74" from-port="147" to-layer="114" to-port="232"/>
		<edge from-layer="81" from-port="162" to-layer="114" to-port="233"/>
		<edge from-layer="88" from-port="177" to-layer="114" to-port="234"/>
		<edge from-layer="95" from-port="192" to-layer="114" to-port="235"/>
		<edge from-layer="102" from-port="207" to-layer="114" to-port="236"/>
		<edge from-layer="109" from-port="222" to-layer="114" to-port="237"/>
		<edge from-layer="77" from-port="153" to-layer="115" to-port="239"/>
		<edge from-layer="84" from-port="168" to-layer="115" to-port="240"/>
		<edge from-layer="91" from-port="183" to-layer="115" to-port="241"/>
		<edge from-layer="98" from-port="198" to-layer="115" to-port="242"/>
		<edge from-layer="105" from-port="213" to-layer="115" to-port="243"/>
		<edge from-layer="112" from-port="228" to-layer="115" to-port="244"/>
		<edge from-layer="78" from-port="156" to-layer="116" to-port="246"/>
		<edge from-layer="85" from-port="171" to-layer="116" to-port="247"/>
		<edge from-layer="92" from-port="186" to-layer="116" to-port="248"/>
		<edge from-layer="99" from-port="201" to-layer="116" to-port="249"/>
		<edge from-layer="106" from-port="216" to-layer="116" to-port="250"/>
		<edge from-layer="113" from-port="231" to-layer="116" to-port="251"/>
		<edge from-layer="115" from-port="245" to-layer="117" to-port="253"/>
		<edge from-layer="117" from-port="254" to-layer="118" to-port="255"/>
		<edge from-layer="118" from-port="256" to-layer="119" to-port="257"/>
		<edge from-layer="114" from-port="238" to-layer="120" to-port="259"/>
		<edge from-layer="119" from-port="258" to-layer="120" to-port="260"/>
		<edge from-layer="116" from-port="252" to-layer="120" to-port="261"/>
	</edges>
</net>
