<net name="SSD_ResNet18_FP16" version="2" batch="1">
    <layers>
        <layer name="input" type="Input" precision="FP16" id="0">
            <output>
                <port id="0">
                    <dim>1</dim>
                    <dim>3</dim>
                    <dim>300</dim>
                    <dim>300</dim>
                </port>
            </output>
        </layer>
        <layer name="conv1" type="Convolution" precision="FP16" id="1">
            <convolution_data stride-x="2" stride-y="2" pad-x="3" pad-y="3" kernel-x="7" kernel-y="7" output="64" group="1"/>
            <input>
                <port id="1">
                    <dim>1</dim>
                    <dim>3</dim>
                    <dim>300</dim>
                    <dim>300</dim>
                </port>
            </input>
            <output>
                <port id="2">
                    <dim>1</dim>
                    <dim>64</dim>
                    <dim>150</dim>
                    <dim>150</dim>
                </port>
            </output>
            <weights offset="0" size="18816"/>
            <biases offset="18816" size="128"/>
        </layer>
        <layer name="conv1_relu" type="ReLU" precision="FP16" id="4">
            <data negative_slope="0.000000" engine="caffe.ReLUParameter.DEFAULT"/>
            <input>
                <port id="7">
                    <dim>1</dim>
                    <dim>64</dim>
                    <dim>150</dim>
                    <dim>150</dim>
                </port>
            </input>
            <output>
                <port id="8">
                    <dim>1</dim>
                    <dim>64</dim>
                    <dim>150</dim>
                    <dim>150</dim>
                </port>
            </output>
        </layer>
        <layer name="pool1" type="Pooling" precision="FP16" id="5">
            <pooling_data kernel-x="3" kernel-y="3" pad-x="0" pad-y="0" stride-x="2" stride-y="2" rounding-type="ceil" pool-method="max"/>
            <input>
                <port id="9">
                    <dim>1</dim>
                    <dim>64</dim>
                    <dim>150</dim>
                    <dim>150</dim>
                </port>
            </input>
            <output>
                <port id="10">
                    <dim>1</dim>
                    <dim>64</dim>
                    <dim>75</dim>
                    <dim>75</dim>
                </port>
            </output>
        </layer>
        <layer name="res2a_branch2a" type="Convolution" precision="FP16" id="9">
            <convolution_data stride-x="1" stride-y="1" pad-x="1" pad-y="1" kernel-x="3" kernel-y="3" output="64" group="1"/>
            <input>
                <port id="17">
                    <dim>1</dim>
                    <dim>64</dim>
                    <dim>75</dim>
                    <dim>75</dim>
                </port>
            </input>
            <output>
                <port id="18">
                    <dim>1</dim>
                    <dim>64</dim>
                    <dim>75</dim>
                    <dim>75</dim>
                </port>
            </output>
            <weights offset="18944" size="73728"/>
            <biases offset="92672" size="128"/>
        </layer>
        <layer name="res2a_branch2a_relu" type="ReLU" precision="FP16" id="12">
            <data negative_slope="0.000000" engine="caffe.ReLUParameter.DEFAULT"/>
            <input>
                <port id="23">
                    <dim>1</dim>
                    <dim>64</dim>
                    <dim>75</dim>
                    <dim>75</dim>
                </port>
            </input>
            <output>
                <port id="24">
                    <dim>1</dim>
                    <dim>64</dim>
                    <dim>75</dim>
                    <dim>75</dim>
                </port>
            </output>
        </layer>
        <layer name="res2a_branch2b" type="Convolution" precision="FP16" id="13">
            <convolution_data stride-x="1" stride-y="1" pad-x="1" pad-y="1" kernel-x="3" kernel-y="3" output="64" group="1"/>
            <input>
                <port id="25">
                    <dim>1</dim>
                    <dim>64</dim>
                    <dim>75</dim>
                    <dim>75</dim>
                </port>
            </input>
            <output>
                <port id="26">
                    <dim>1</dim>
                    <dim>64</dim>
                    <dim>75</dim>
                    <dim>75</dim>
                </port>
            </output>
            <weights offset="92800" size="73728"/>
            <biases offset="166528" size="128"/>
        </layer>
        <layer name="res2a_branch2b_relu" type="ReLU" precision="FP16" id="16">
            <data negative_slope="0.000000" engine="caffe.ReLUParameter.DEFAULT"/>
            <input>
                <port id="31">
                    <dim>1</dim>
                    <dim>64</dim>
                    <dim>75</dim>
                    <dim>75</dim>
                </port>
            </input>
            <output>
                <port id="32">
                    <dim>1</dim>
                    <dim>64</dim>
                    <dim>75</dim>
                    <dim>75</dim>
                </port>
            </output>
        </layer>
        <layer name="res2a_branch1" type="Convolution" precision="FP16" id="6">
            <convolution_data stride-x="1" stride-y="1" pad-x="0" pad-y="0" kernel-x="1" kernel-y="1" output="64" group="1"/>
            <input>
                <port id="11">
                    <dim>1</dim>
                    <dim>64</dim>
                    <dim>75</dim>
                    <dim>75</dim>
                </port>
            </input>
            <output>
                <port id="12">
                    <dim>1</dim>
                    <dim>64</dim>
                    <dim>75</dim>
                    <dim>75</dim>
                </port>
            </output>
            <weights offset="166656" size="8192"/>
            <biases offset="174848" size="128"/>
        </layer>
        <layer name="res2a" type="Eltwise" precision="FP16" id="17">
            <elementwise_data operation="sum"/>
            <input>
                <port id="33">
                    <dim>1</dim>
                    <dim>64</dim>
                    <dim>75</dim>
                    <dim>75</dim>
                </port>
                <port id="34">
                    <dim>1</dim>
                    <dim>64</dim>
                    <dim>75</dim>
                    <dim>75</dim>
                </port>
            </input>
            <output>
                <port id="35">
                    <dim>1</dim>
                    <dim>64</dim>
                    <dim>75</dim>
                    <dim>75</dim>
                </port>
            </output>
        </layer>
        <layer name="res2a_relu" type="ReLU" precision="FP16" id="18">
            <data negative_slope="0.000000" engine="caffe.ReLUParameter.DEFAULT"/>
            <input>
                <port id="36">
                    <dim>1</dim>
                    <dim>64</dim>
                    <dim>75</dim>
                    <dim>75</dim>
                </port>
            </input>
            <output>
                <port id="37">
                    <dim>1</dim>
                    <dim>64</dim>
                    <dim>75</dim>
                    <dim>75</dim>
                </port>
            </output>
        </layer>
        <layer name="res2b_branch2a" type="Convolution" precision="FP16" id="19">
            <convolution_data stride-x="1" stride-y="1" pad-x="1" pad-y="1" kernel-x="3" kernel-y="3" output="64" group="1"/>
            <input>
                <port id="38">
                    <dim>1</dim>
                    <dim>64</dim>
                    <dim>75</dim>
                    <dim>75</dim>
                </port>
            </input>
            <output>
                <port id="39">
                    <dim>1</dim>
                    <dim>64</dim>
                    <dim>75</dim>
                    <dim>75</dim>
                </port>
            </output>
            <weights offset="174976" size="73728"/>
            <biases offset="248704" size="128"/>
        </layer>
        <layer name="res2b_branch2a_relu" type="ReLU" precision="FP16" id="22">
            <data negative_slope="0.000000" engine="caffe.ReLUParameter.DEFAULT"/>
            <input>
                <port id="44">
                    <dim>1</dim>
                    <dim>64</dim>
                    <dim>75</dim>
                    <dim>75</dim>
                </port>
            </input>
            <output>
                <port id="45">
                    <dim>1</dim>
                    <dim>64</dim>
                    <dim>75</dim>
                    <dim>75</dim>
                </port>
            </output>
        </layer>
        <layer name="res2b_branch2b" type="Convolution" precision="FP16" id="23">
            <convolution_data stride-x="1" stride-y="1" pad-x="1" pad-y="1" kernel-x="3" kernel-y="3" output="64" group="1"/>
            <input>
                <port id="46">
                    <dim>1</dim>
                    <dim>64</dim>
                    <dim>75</dim>
                    <dim>75</dim>
                </port>
            </input>
            <output>
                <port id="47">
                    <dim>1</dim>
                    <dim>64</dim>
                    <dim>75</dim>
                    <dim>75</dim>
                </port>
            </output>
            <weights offset="248832" size="73728"/>
            <biases offset="322560" size="128"/>
        </layer>
        <layer name="res2b_branch2b_relu" type="ReLU" precision="FP16" id="26">
            <data negative_slope="0.000000" engine="caffe.ReLUParameter.DEFAULT"/>
            <input>
                <port id="52">
                    <dim>1</dim>
                    <dim>64</dim>
                    <dim>75</dim>
                    <dim>75</dim>
                </port>
            </input>
            <output>
                <port id="53">
                    <dim>1</dim>
                    <dim>64</dim>
                    <dim>75</dim>
                    <dim>75</dim>
                </port>
            </output>
        </layer>
        <layer name="res2b" type="Eltwise" precision="FP16" id="27">
            <elementwise_data operation="sum"/>
            <input>
                <port id="54">
                    <dim>1</dim>
                    <dim>64</dim>
                    <dim>75</dim>
                    <dim>75</dim>
                </port>
                <port id="55">
                    <dim>1</dim>
                    <dim>64</dim>
                    <dim>75</dim>
                    <dim>75</dim>
                </port>
            </input>
            <output>
                <port id="56">
                    <dim>1</dim>
                    <dim>64</dim>
                    <dim>75</dim>
                    <dim>75</dim>
                </port>
            </output>
        </layer>
        <layer name="res2b_relu" type="ReLU" precision="FP16" id="28">
            <data negative_slope="0.000000" engine="caffe.ReLUParameter.DEFAULT"/>
            <input>
                <port id="57">
                    <dim>1</dim>
                    <dim>64</dim>
                    <dim>75</dim>
                    <dim>75</dim>
                </port>
            </input>
            <output>
                <port id="58">
                    <dim>1</dim>
                    <dim>64</dim>
                    <dim>75</dim>
                    <dim>75</dim>
                </port>
            </output>
        </layer>
        <layer name="res3a_branch2a" type="Convolution" precision="FP16" id="32">
            <convolution_data stride-x="2" stride-y="2" pad-x="1" pad-y="1" kernel-x="3" kernel-y="3" output="128" group="1"/>
            <input>
                <port id="65">
                    <dim>1</dim>
                    <dim>64</dim>
                    <dim>75</dim>
                    <dim>75</dim>
                </port>
            </input>
            <output>
                <port id="66">
                    <dim>1</dim>
                    <dim>128</dim>
                    <dim>38</dim>
                    <dim>38</dim>
                </port>
            </output>
            <weights offset="322688" size="147456"/>
            <biases offset="470144" size="256"/>
        </layer>
        <layer name="res3a_branch2a_relu" type="ReLU" precision="FP16" id="35">
            <data negative_slope="0.000000" engine="caffe.ReLUParameter.DEFAULT"/>
            <input>
                <port id="71">
                    <dim>1</dim>
                    <dim>128</dim>
                    <dim>38</dim>
                    <dim>38</dim>
                </port>
            </input>
            <output>
                <port id="72">
                    <dim>1</dim>
                    <dim>128</dim>
                    <dim>38</dim>
                    <dim>38</dim>
                </port>
            </output>
        </layer>
        <layer name="res3a_branch2b" type="Convolution" precision="FP16" id="36">
            <convolution_data stride-x="1" stride-y="1" pad-x="1" pad-y="1" kernel-x="3" kernel-y="3" output="128" group="1"/>
            <input>
                <port id="73">
                    <dim>1</dim>
                    <dim>128</dim>
                    <dim>38</dim>
                    <dim>38</dim>
                </port>
            </input>
            <output>
                <port id="74">
                    <dim>1</dim>
                    <dim>128</dim>
                    <dim>38</dim>
                    <dim>38</dim>
                </port>
            </output>
            <weights offset="470400" size="294912"/>
            <biases offset="765312" size="256"/>
        </layer>
        <layer name="res3a_branch2b_relu" type="ReLU" precision="FP16" id="39">
            <data negative_slope="0.000000" engine="caffe.ReLUParameter.DEFAULT"/>
            <input>
                <port id="79">
                    <dim>1</dim>
                    <dim>128</dim>
                    <dim>38</dim>
                    <dim>38</dim>
                </port>
            </input>
            <output>
                <port id="80">
                    <dim>1</dim>
                    <dim>128</dim>
                    <dim>38</dim>
                    <dim>38</dim>
                </port>
            </output>
        </layer>
        <layer name="res3a_branch1" type="Convolution" precision="FP16" id="29">
            <convolution_data stride-x="2" stride-y="2" pad-x="0" pad-y="0" kernel-x="1" kernel-y="1" output="128" group="1"/>
            <input>
                <port id="59">
                    <dim>1</dim>
                    <dim>64</dim>
                    <dim>75</dim>
                    <dim>75</dim>
                </port>
            </input>
            <output>
                <port id="60">
                    <dim>1</dim>
                    <dim>128</dim>
                    <dim>38</dim>
                    <dim>38</dim>
                </port>
            </output>
            <weights offset="765568" size="16384"/>
            <biases offset="781952" size="256"/>
        </layer>
        <layer name="res3a" type="Eltwise" precision="FP16" id="40">
            <elementwise_data operation="sum"/>
            <input>
                <port id="81">
                    <dim>1</dim>
                    <dim>128</dim>
                    <dim>38</dim>
                    <dim>38</dim>
                </port>
                <port id="82">
                    <dim>1</dim>
                    <dim>128</dim>
                    <dim>38</dim>
                    <dim>38</dim>
                </port>
            </input>
            <output>
                <port id="83">
                    <dim>1</dim>
                    <dim>128</dim>
                    <dim>38</dim>
                    <dim>38</dim>
                </port>
            </output>
        </layer>
        <layer name="res3a_relu" type="ReLU" precision="FP16" id="41">
            <data negative_slope="0.000000" engine="caffe.ReLUParameter.DEFAULT"/>
            <input>
                <port id="84">
                    <dim>1</dim>
                    <dim>128</dim>
                    <dim>38</dim>
                    <dim>38</dim>
                </port>
            </input>
            <output>
                <port id="85">
                    <dim>1</dim>
                    <dim>128</dim>
                    <dim>38</dim>
                    <dim>38</dim>
                </port>
            </output>
        </layer>
        <layer name="res3a_relu_mbox_priorbox" type="PriorBox" precision="FP16" id="129">
            <data min_size="30.000000" max_size="" aspect_ratio="2.000000" flip="1" clip="1" variance="0.100000,0.100000,0.200000,0.200000" img_size="0" img_h="0" img_w="0" step="0.000000" step_h="0.000000" step_w="0.000000" offset="0.500000" width="" height=""/>
            <input>
                <port id="265">
                    <dim>1</dim>
                    <dim>128</dim>
                    <dim>38</dim>
                    <dim>38</dim>
                </port>
                <port id="266">
                    <dim>1</dim>
                    <dim>3</dim>
                    <dim>300</dim>
                    <dim>300</dim>
                </port>
            </input>
            <output>
                <port id="267">
                    <dim>1</dim>
                    <dim>2</dim>
                    <dim>17328</dim>
                </port>
            </output>
        </layer>
        <layer name="res3a_relu_mbox_conf" type="Convolution" precision="FP16" id="126">
            <convolution_data stride-x="1" stride-y="1" pad-x="1" pad-y="1" kernel-x="3" kernel-y="3" output="63" group="1"/>
            <input>
                <port id="259">
                    <dim>1</dim>
                    <dim>128</dim>
                    <dim>38</dim>
                    <dim>38</dim>
                </port>
            </input>
            <output>
                <port id="260">
                    <dim>1</dim>
                    <dim>63</dim>
                    <dim>38</dim>
                    <dim>38</dim>
                </port>
            </output>
            <weights offset="782208" size="145152"/>
            <biases offset="927360" size="126"/>
        </layer>
        <layer name="res3a_relu_mbox_conf_perm" type="Permute" precision="FP16" id="127">
            <data order="0,2,3,1"/>
            <input>
                <port id="261">
                    <dim>1</dim>
                    <dim>63</dim>
                    <dim>38</dim>
                    <dim>38</dim>
                </port>
            </input>
            <output>
                <port id="262">
                    <dim>1</dim>
                    <dim>38</dim>
                    <dim>38</dim>
                    <dim>63</dim>
                </port>
            </output>
        </layer>
        <layer name="res3a_relu_mbox_conf_flat" type="Flatten" precision="FP16" id="128">
            <data axis="1" end_axis="-1"/>
            <input>
                <port id="263">
                    <dim>1</dim>
                    <dim>38</dim>
                    <dim>38</dim>
                    <dim>63</dim>
                </port>
            </input>
            <output>
                <port id="264">
                    <dim>1</dim>
                    <dim>90972</dim>
                </port>
            </output>
        </layer>
        <layer name="res3a_relu_mbox_loc" type="Convolution" precision="FP16" id="123">
            <convolution_data stride-x="1" stride-y="1" pad-x="1" pad-y="1" kernel-x="3" kernel-y="3" output="12" group="1"/>
            <input>
                <port id="253">
                    <dim>1</dim>
                    <dim>128</dim>
                    <dim>38</dim>
                    <dim>38</dim>
                </port>
            </input>
            <output>
                <port id="254">
                    <dim>1</dim>
                    <dim>12</dim>
                    <dim>38</dim>
                    <dim>38</dim>
                </port>
            </output>
            <weights offset="927486" size="27648"/>
            <biases offset="955134" size="24"/>
        </layer>
        <layer name="res3a_relu_mbox_loc_perm" type="Permute" precision="FP16" id="124">
            <data order="0,2,3,1"/>
            <input>
                <port id="255">
                    <dim>1</dim>
                    <dim>12</dim>
                    <dim>38</dim>
                    <dim>38</dim>
                </port>
            </input>
            <output>
                <port id="256">
                    <dim>1</dim>
                    <dim>38</dim>
                    <dim>38</dim>
                    <dim>12</dim>
                </port>
            </output>
        </layer>
        <layer name="res3a_relu_mbox_loc_flat" type="Flatten" precision="FP16" id="125">
            <data axis="1" end_axis="-1"/>
            <input>
                <port id="257">
                    <dim>1</dim>
                    <dim>38</dim>
                    <dim>38</dim>
                    <dim>12</dim>
                </port>
            </input>
            <output>
                <port id="258">
                    <dim>1</dim>
                    <dim>17328</dim>
                </port>
            </output>
        </layer>
        <layer name="res3b_branch2a" type="Convolution" precision="FP16" id="42">
            <convolution_data stride-x="1" stride-y="1" pad-x="1" pad-y="1" kernel-x="3" kernel-y="3" output="128" group="1"/>
            <input>
                <port id="86">
                    <dim>1</dim>
                    <dim>128</dim>
                    <dim>38</dim>
                    <dim>38</dim>
                </port>
            </input>
            <output>
                <port id="87">
                    <dim>1</dim>
                    <dim>128</dim>
                    <dim>38</dim>
                    <dim>38</dim>
                </port>
            </output>
            <weights offset="955158" size="294912"/>
            <biases offset="1250070" size="256"/>
        </layer>
        <layer name="res3b_branch2a_relu" type="ReLU" precision="FP16" id="45">
            <data negative_slope="0.000000" engine="caffe.ReLUParameter.DEFAULT"/>
            <input>
                <port id="92">
                    <dim>1</dim>
                    <dim>128</dim>
                    <dim>38</dim>
                    <dim>38</dim>
                </port>
            </input>
            <output>
                <port id="93">
                    <dim>1</dim>
                    <dim>128</dim>
                    <dim>38</dim>
                    <dim>38</dim>
                </port>
            </output>
        </layer>
        <layer name="res3b_branch2b" type="Convolution" precision="FP16" id="46">
            <convolution_data stride-x="1" stride-y="1" pad-x="1" pad-y="1" kernel-x="3" kernel-y="3" output="128" group="1"/>
            <input>
                <port id="94">
                    <dim>1</dim>
                    <dim>128</dim>
                    <dim>38</dim>
                    <dim>38</dim>
                </port>
            </input>
            <output>
                <port id="95">
                    <dim>1</dim>
                    <dim>128</dim>
                    <dim>38</dim>
                    <dim>38</dim>
                </port>
            </output>
            <weights offset="1250326" size="294912"/>
            <biases offset="1545238" size="256"/>
        </layer>
        <layer name="res3b_branch2b_relu" type="ReLU" precision="FP16" id="49">
            <data negative_slope="0.000000" engine="caffe.ReLUParameter.DEFAULT"/>
            <input>
                <port id="100">
                    <dim>1</dim>
                    <dim>128</dim>
                    <dim>38</dim>
                    <dim>38</dim>
                </port>
            </input>
            <output>
                <port id="101">
                    <dim>1</dim>
                    <dim>128</dim>
                    <dim>38</dim>
                    <dim>38</dim>
                </port>
            </output>
        </layer>
        <layer name="res3b" type="Eltwise" precision="FP16" id="50">
            <elementwise_data operation="sum"/>
            <input>
                <port id="102">
                    <dim>1</dim>
                    <dim>128</dim>
                    <dim>38</dim>
                    <dim>38</dim>
                </port>
                <port id="103">
                    <dim>1</dim>
                    <dim>128</dim>
                    <dim>38</dim>
                    <dim>38</dim>
                </port>
            </input>
            <output>
                <port id="104">
                    <dim>1</dim>
                    <dim>128</dim>
                    <dim>38</dim>
                    <dim>38</dim>
                </port>
            </output>
        </layer>
        <layer name="res3b_relu" type="ReLU" precision="FP16" id="51">
            <data negative_slope="0.000000" engine="caffe.ReLUParameter.DEFAULT"/>
            <input>
                <port id="105">
                    <dim>1</dim>
                    <dim>128</dim>
                    <dim>38</dim>
                    <dim>38</dim>
                </port>
            </input>
            <output>
                <port id="106">
                    <dim>1</dim>
                    <dim>128</dim>
                    <dim>38</dim>
                    <dim>38</dim>
                </port>
            </output>
        </layer>
        <layer name="res4a_branch2a" type="Convolution" precision="FP16" id="55">
            <convolution_data stride-x="2" stride-y="2" pad-x="1" pad-y="1" kernel-x="3" kernel-y="3" output="256" group="1"/>
            <input>
                <port id="113">
                    <dim>1</dim>
                    <dim>128</dim>
                    <dim>38</dim>
                    <dim>38</dim>
                </port>
            </input>
            <output>
                <port id="114">
                    <dim>1</dim>
                    <dim>256</dim>
                    <dim>19</dim>
                    <dim>19</dim>
                </port>
            </output>
            <weights offset="1545494" size="589824"/>
            <biases offset="2135318" size="512"/>
        </layer>
        <layer name="res4a_branch2a_relu" type="ReLU" precision="FP16" id="58">
            <data negative_slope="0.000000" engine="caffe.ReLUParameter.DEFAULT"/>
            <input>
                <port id="119">
                    <dim>1</dim>
                    <dim>256</dim>
                    <dim>19</dim>
                    <dim>19</dim>
                </port>
            </input>
            <output>
                <port id="120">
                    <dim>1</dim>
                    <dim>256</dim>
                    <dim>19</dim>
                    <dim>19</dim>
                </port>
            </output>
        </layer>
        <layer name="res4a_branch2b" type="Convolution" precision="FP16" id="59">
            <convolution_data stride-x="1" stride-y="1" pad-x="1" pad-y="1" kernel-x="3" kernel-y="3" output="256" group="1"/>
            <input>
                <port id="121">
                    <dim>1</dim>
                    <dim>256</dim>
                    <dim>19</dim>
                    <dim>19</dim>
                </port>
            </input>
            <output>
                <port id="122">
                    <dim>1</dim>
                    <dim>256</dim>
                    <dim>19</dim>
                    <dim>19</dim>
                </port>
            </output>
            <weights offset="2135830" size="1179648"/>
            <biases offset="3315478" size="512"/>
        </layer>
        <layer name="res4a_branch2b_relu" type="ReLU" precision="FP16" id="62">
            <data negative_slope="0.000000" engine="caffe.ReLUParameter.DEFAULT"/>
            <input>
                <port id="127">
                    <dim>1</dim>
                    <dim>256</dim>
                    <dim>19</dim>
                    <dim>19</dim>
                </port>
            </input>
            <output>
                <port id="128">
                    <dim>1</dim>
                    <dim>256</dim>
                    <dim>19</dim>
                    <dim>19</dim>
                </port>
            </output>
        </layer>
        <layer name="res4a_branch1" type="Convolution" precision="FP16" id="52">
            <convolution_data stride-x="2" stride-y="2" pad-x="0" pad-y="0" kernel-x="1" kernel-y="1" output="256" group="1"/>
            <input>
                <port id="107">
                    <dim>1</dim>
                    <dim>128</dim>
                    <dim>38</dim>
                    <dim>38</dim>
                </port>
            </input>
            <output>
                <port id="108">
                    <dim>1</dim>
                    <dim>256</dim>
                    <dim>19</dim>
                    <dim>19</dim>
                </port>
            </output>
            <weights offset="3315990" size="65536"/>
            <biases offset="3381526" size="512"/>
        </layer>
        <layer name="res4a" type="Eltwise" precision="FP16" id="63">
            <elementwise_data operation="sum"/>
            <input>
                <port id="129">
                    <dim>1</dim>
                    <dim>256</dim>
                    <dim>19</dim>
                    <dim>19</dim>
                </port>
                <port id="130">
                    <dim>1</dim>
                    <dim>256</dim>
                    <dim>19</dim>
                    <dim>19</dim>
                </port>
            </input>
            <output>
                <port id="131">
                    <dim>1</dim>
                    <dim>256</dim>
                    <dim>19</dim>
                    <dim>19</dim>
                </port>
            </output>
        </layer>
        <layer name="res4a_relu" type="ReLU" precision="FP16" id="64">
            <data negative_slope="0.000000" engine="caffe.ReLUParameter.DEFAULT"/>
            <input>
                <port id="132">
                    <dim>1</dim>
                    <dim>256</dim>
                    <dim>19</dim>
                    <dim>19</dim>
                </port>
            </input>
            <output>
                <port id="133">
                    <dim>1</dim>
                    <dim>256</dim>
                    <dim>19</dim>
                    <dim>19</dim>
                </port>
            </output>
        </layer>
        <layer name="res4b_branch2a" type="Convolution" precision="FP16" id="65">
            <convolution_data stride-x="1" stride-y="1" pad-x="1" pad-y="1" kernel-x="3" kernel-y="3" output="256" group="1"/>
            <input>
                <port id="134">
                    <dim>1</dim>
                    <dim>256</dim>
                    <dim>19</dim>
                    <dim>19</dim>
                </port>
            </input>
            <output>
                <port id="135">
                    <dim>1</dim>
                    <dim>256</dim>
                    <dim>19</dim>
                    <dim>19</dim>
                </port>
            </output>
            <weights offset="3382038" size="1179648"/>
            <biases offset="4561686" size="512"/>
        </layer>
        <layer name="res4b_branch2a_relu" type="ReLU" precision="FP16" id="68">
            <data negative_slope="0.000000" engine="caffe.ReLUParameter.DEFAULT"/>
            <input>
                <port id="140">
                    <dim>1</dim>
                    <dim>256</dim>
                    <dim>19</dim>
                    <dim>19</dim>
                </port>
            </input>
            <output>
                <port id="141">
                    <dim>1</dim>
                    <dim>256</dim>
                    <dim>19</dim>
                    <dim>19</dim>
                </port>
            </output>
        </layer>
        <layer name="res4b_branch2b" type="Convolution" precision="FP16" id="69">
            <convolution_data stride-x="1" stride-y="1" pad-x="1" pad-y="1" kernel-x="3" kernel-y="3" output="256" group="1"/>
            <input>
                <port id="142">
                    <dim>1</dim>
                    <dim>256</dim>
                    <dim>19</dim>
                    <dim>19</dim>
                </port>
            </input>
            <output>
                <port id="143">
                    <dim>1</dim>
                    <dim>256</dim>
                    <dim>19</dim>
                    <dim>19</dim>
                </port>
            </output>
            <weights offset="4562198" size="1179648"/>
            <biases offset="5741846" size="512"/>
        </layer>
        <layer name="res4b_branch2b_relu" type="ReLU" precision="FP16" id="72">
            <data negative_slope="0.000000" engine="caffe.ReLUParameter.DEFAULT"/>
            <input>
                <port id="148">
                    <dim>1</dim>
                    <dim>256</dim>
                    <dim>19</dim>
                    <dim>19</dim>
                </port>
            </input>
            <output>
                <port id="149">
                    <dim>1</dim>
                    <dim>256</dim>
                    <dim>19</dim>
                    <dim>19</dim>
                </port>
            </output>
        </layer>
        <layer name="res4b" type="Eltwise" precision="FP16" id="73">
            <elementwise_data operation="sum"/>
            <input>
                <port id="150">
                    <dim>1</dim>
                    <dim>256</dim>
                    <dim>19</dim>
                    <dim>19</dim>
                </port>
                <port id="151">
                    <dim>1</dim>
                    <dim>256</dim>
                    <dim>19</dim>
                    <dim>19</dim>
                </port>
            </input>
            <output>
                <port id="152">
                    <dim>1</dim>
                    <dim>256</dim>
                    <dim>19</dim>
                    <dim>19</dim>
                </port>
            </output>
        </layer>
        <layer name="res4b_relu" type="ReLU" precision="FP16" id="74">
            <data negative_slope="0.000000" engine="caffe.ReLUParameter.DEFAULT"/>
            <input>
                <port id="153">
                    <dim>1</dim>
                    <dim>256</dim>
                    <dim>19</dim>
                    <dim>19</dim>
                </port>
            </input>
            <output>
                <port id="154">
                    <dim>1</dim>
                    <dim>256</dim>
                    <dim>19</dim>
                    <dim>19</dim>
                </port>
            </output>
        </layer>
        <layer name="res5a_branch2a" type="Convolution" precision="FP16" id="78">
            <convolution_data stride-x="2" stride-y="2" pad-x="1" pad-y="1" kernel-x="3" kernel-y="3" output="512" group="1"/>
            <input>
                <port id="161">
                    <dim>1</dim>
                    <dim>256</dim>
                    <dim>19</dim>
                    <dim>19</dim>
                </port>
            </input>
            <output>
                <port id="162">
                    <dim>1</dim>
                    <dim>512</dim>
                    <dim>10</dim>
                    <dim>10</dim>
                </port>
            </output>
            <weights offset="5742358" size="2359296"/>
            <biases offset="8101654" size="1024"/>
        </layer>
        <layer name="res5a_branch2a_relu" type="ReLU" precision="FP16" id="81">
            <data negative_slope="0.000000" engine="caffe.ReLUParameter.DEFAULT"/>
            <input>
                <port id="167">
                    <dim>1</dim>
                    <dim>512</dim>
                    <dim>10</dim>
                    <dim>10</dim>
                </port>
            </input>
            <output>
                <port id="168">
                    <dim>1</dim>
                    <dim>512</dim>
                    <dim>10</dim>
                    <dim>10</dim>
                </port>
            </output>
        </layer>
        <layer name="res5a_branch2b" type="Convolution" precision="FP16" id="82">
            <convolution_data stride-x="1" stride-y="1" pad-x="1" pad-y="1" kernel-x="3" kernel-y="3" output="512" group="1"/>
            <input>
                <port id="169">
                    <dim>1</dim>
                    <dim>512</dim>
                    <dim>10</dim>
                    <dim>10</dim>
                </port>
            </input>
            <output>
                <port id="170">
                    <dim>1</dim>
                    <dim>512</dim>
                    <dim>10</dim>
                    <dim>10</dim>
                </port>
            </output>
            <weights offset="8102678" size="4718592"/>
            <biases offset="12821270" size="1024"/>
        </layer>
        <layer name="res5a_branch2b_relu" type="ReLU" precision="FP16" id="85">
            <data negative_slope="0.000000" engine="caffe.ReLUParameter.DEFAULT"/>
            <input>
                <port id="175">
                    <dim>1</dim>
                    <dim>512</dim>
                    <dim>10</dim>
                    <dim>10</dim>
                </port>
            </input>
            <output>
                <port id="176">
                    <dim>1</dim>
                    <dim>512</dim>
                    <dim>10</dim>
                    <dim>10</dim>
                </port>
            </output>
        </layer>
        <layer name="res5a_branch1" type="Convolution" precision="FP16" id="75">
            <convolution_data stride-x="2" stride-y="2" pad-x="0" pad-y="0" kernel-x="1" kernel-y="1" output="512" group="1"/>
            <input>
                <port id="155">
                    <dim>1</dim>
                    <dim>256</dim>
                    <dim>19</dim>
                    <dim>19</dim>
                </port>
            </input>
            <output>
                <port id="156">
                    <dim>1</dim>
                    <dim>512</dim>
                    <dim>10</dim>
                    <dim>10</dim>
                </port>
            </output>
            <weights offset="12822294" size="262144"/>
            <biases offset="13084438" size="1024"/>
        </layer>
        <layer name="res5a" type="Eltwise" precision="FP16" id="86">
            <elementwise_data operation="sum"/>
            <input>
                <port id="177">
                    <dim>1</dim>
                    <dim>512</dim>
                    <dim>10</dim>
                    <dim>10</dim>
                </port>
                <port id="178">
                    <dim>1</dim>
                    <dim>512</dim>
                    <dim>10</dim>
                    <dim>10</dim>
                </port>
            </input>
            <output>
                <port id="179">
                    <dim>1</dim>
                    <dim>512</dim>
                    <dim>10</dim>
                    <dim>10</dim>
                </port>
            </output>
        </layer>
        <layer name="res5a_relu" type="ReLU" precision="FP16" id="87">
            <data negative_slope="0.000000" engine="caffe.ReLUParameter.DEFAULT"/>
            <input>
                <port id="180">
                    <dim>1</dim>
                    <dim>512</dim>
                    <dim>10</dim>
                    <dim>10</dim>
                </port>
            </input>
            <output>
                <port id="181">
                    <dim>1</dim>
                    <dim>512</dim>
                    <dim>10</dim>
                    <dim>10</dim>
                </port>
            </output>
        </layer>
        <layer name="res5b_branch2a" type="Convolution" precision="FP16" id="88">
            <convolution_data stride-x="1" stride-y="1" pad-x="1" pad-y="1" kernel-x="3" kernel-y="3" output="512" group="1"/>
            <input>
                <port id="182">
                    <dim>1</dim>
                    <dim>512</dim>
                    <dim>10</dim>
                    <dim>10</dim>
                </port>
            </input>
            <output>
                <port id="183">
                    <dim>1</dim>
                    <dim>512</dim>
                    <dim>10</dim>
                    <dim>10</dim>
                </port>
            </output>
            <weights offset="13085462" size="4718592"/>
            <biases offset="17804054" size="1024"/>
        </layer>
        <layer name="res5b_branch2a_relu" type="ReLU" precision="FP16" id="91">
            <data negative_slope="0.000000" engine="caffe.ReLUParameter.DEFAULT"/>
            <input>
                <port id="188">
                    <dim>1</dim>
                    <dim>512</dim>
                    <dim>10</dim>
                    <dim>10</dim>
                </port>
            </input>
            <output>
                <port id="189">
                    <dim>1</dim>
                    <dim>512</dim>
                    <dim>10</dim>
                    <dim>10</dim>
                </port>
            </output>
        </layer>
        <layer name="res5b_branch2b" type="Convolution" precision="FP16" id="92">
            <convolution_data stride-x="1" stride-y="1" pad-x="1" pad-y="1" kernel-x="3" kernel-y="3" output="512" group="1"/>
            <input>
                <port id="190">
                    <dim>1</dim>
                    <dim>512</dim>
                    <dim>10</dim>
                    <dim>10</dim>
                </port>
            </input>
            <output>
                <port id="191">
                    <dim>1</dim>
                    <dim>512</dim>
                    <dim>10</dim>
                    <dim>10</dim>
                </port>
            </output>
            <weights offset="17805078" size="4718592"/>
            <biases offset="22523670" size="1024"/>
        </layer>
        <layer name="res5b_branch2b_relu" type="ReLU" precision="FP16" id="95">
            <data negative_slope="0.000000" engine="caffe.ReLUParameter.DEFAULT"/>
            <input>
                <port id="196">
                    <dim>1</dim>
                    <dim>512</dim>
                    <dim>10</dim>
                    <dim>10</dim>
                </port>
            </input>
            <output>
                <port id="197">
                    <dim>1</dim>
                    <dim>512</dim>
                    <dim>10</dim>
                    <dim>10</dim>
                </port>
            </output>
        </layer>
        <layer name="res5b" type="Eltwise" precision="FP16" id="96">
            <elementwise_data operation="sum"/>
            <input>
                <port id="198">
                    <dim>1</dim>
                    <dim>512</dim>
                    <dim>10</dim>
                    <dim>10</dim>
                </port>
                <port id="199">
                    <dim>1</dim>
                    <dim>512</dim>
                    <dim>10</dim>
                    <dim>10</dim>
                </port>
            </input>
            <output>
                <port id="200">
                    <dim>1</dim>
                    <dim>512</dim>
                    <dim>10</dim>
                    <dim>10</dim>
                </port>
            </output>
        </layer>
        <layer name="res5b_relu" type="ReLU" precision="FP16" id="97">
            <data negative_slope="0.000000" engine="caffe.ReLUParameter.DEFAULT"/>
            <input>
                <port id="201">
                    <dim>1</dim>
                    <dim>512</dim>
                    <dim>10</dim>
                    <dim>10</dim>
                </port>
            </input>
            <output>
                <port id="202">
                    <dim>1</dim>
                    <dim>512</dim>
                    <dim>10</dim>
                    <dim>10</dim>
                </port>
            </output>
        </layer>
        <layer name="res5b_relu_mbox_priorbox" type="PriorBox" precision="FP16" id="136">
            <data min_size="60.000000" max_size="114.000000" aspect_ratio="2.000000,3.000000" flip="1" clip="1" variance="0.100000,0.100000,0.200000,0.200000" img_size="0" img_h="0" img_w="0" step="0.000000" step_h="0.000000" step_w="0.000000" offset="0.500000" width="" height=""/>
            <input>
                <port id="280">
                    <dim>1</dim>
                    <dim>512</dim>
                    <dim>10</dim>
                    <dim>10</dim>
                </port>
                <port id="281">
                    <dim>1</dim>
                    <dim>3</dim>
                    <dim>300</dim>
                    <dim>300</dim>
                </port>
            </input>
            <output>
                <port id="282">
                    <dim>1</dim>
                    <dim>2</dim>
                    <dim>2400</dim>
                </port>
            </output>
        </layer>
        <layer name="res5b_relu_mbox_conf" type="Convolution" precision="FP16" id="133">
            <convolution_data stride-x="1" stride-y="1" pad-x="1" pad-y="1" kernel-x="3" kernel-y="3" output="126" group="1"/>
            <input>
                <port id="274">
                    <dim>1</dim>
                    <dim>512</dim>
                    <dim>10</dim>
                    <dim>10</dim>
                </port>
            </input>
            <output>
                <port id="275">
                    <dim>1</dim>
                    <dim>126</dim>
                    <dim>10</dim>
                    <dim>10</dim>
                </port>
            </output>
            <weights offset="22524694" size="1161216"/>
            <biases offset="23685910" size="252"/>
        </layer>
        <layer name="res5b_relu_mbox_conf_perm" type="Permute" precision="FP16" id="134">
            <data order="0,2,3,1"/>
            <input>
                <port id="276">
                    <dim>1</dim>
                    <dim>126</dim>
                    <dim>10</dim>
                    <dim>10</dim>
                </port>
            </input>
            <output>
                <port id="277">
                    <dim>1</dim>
                    <dim>10</dim>
                    <dim>10</dim>
                    <dim>126</dim>
                </port>
            </output>
        </layer>
        <layer name="res5b_relu_mbox_conf_flat" type="Flatten" precision="FP16" id="135">
            <data axis="1" end_axis="-1"/>
            <input>
                <port id="278">
                    <dim>1</dim>
                    <dim>10</dim>
                    <dim>10</dim>
                    <dim>126</dim>
                </port>
            </input>
            <output>
                <port id="279">
                    <dim>1</dim>
                    <dim>12600</dim>
                </port>
            </output>
        </layer>
        <layer name="res5b_relu_mbox_loc" type="Convolution" precision="FP16" id="130">
            <convolution_data stride-x="1" stride-y="1" pad-x="1" pad-y="1" kernel-x="3" kernel-y="3" output="24" group="1"/>
            <input>
                <port id="268">
                    <dim>1</dim>
                    <dim>512</dim>
                    <dim>10</dim>
                    <dim>10</dim>
                </port>
            </input>
            <output>
                <port id="269">
                    <dim>1</dim>
                    <dim>24</dim>
                    <dim>10</dim>
                    <dim>10</dim>
                </port>
            </output>
            <weights offset="23686162" size="221184"/>
            <biases offset="23907346" size="48"/>
        </layer>
        <layer name="res5b_relu_mbox_loc_perm" type="Permute" precision="FP16" id="131">
            <data order="0,2,3,1"/>
            <input>
                <port id="270">
                    <dim>1</dim>
                    <dim>24</dim>
                    <dim>10</dim>
                    <dim>10</dim>
                </port>
            </input>
            <output>
                <port id="271">
                    <dim>1</dim>
                    <dim>10</dim>
                    <dim>10</dim>
                    <dim>24</dim>
                </port>
            </output>
        </layer>
        <layer name="res5b_relu_mbox_loc_flat" type="Flatten" precision="FP16" id="132">
            <data axis="1" end_axis="-1"/>
            <input>
                <port id="272">
                    <dim>1</dim>
                    <dim>10</dim>
                    <dim>10</dim>
                    <dim>24</dim>
                </port>
            </input>
            <output>
                <port id="273">
                    <dim>1</dim>
                    <dim>2400</dim>
                </port>
            </output>
        </layer>
        <layer name="res5b_relu_conv1_1" type="Convolution" precision="FP16" id="98">
            <convolution_data stride-x="1" stride-y="1" pad-x="0" pad-y="0" kernel-x="1" kernel-y="1" output="256" group="1"/>
            <input>
                <port id="203">
                    <dim>1</dim>
                    <dim>512</dim>
                    <dim>10</dim>
                    <dim>10</dim>
                </port>
            </input>
            <output>
                <port id="204">
                    <dim>1</dim>
                    <dim>256</dim>
                    <dim>10</dim>
                    <dim>10</dim>
                </port>
            </output>
            <weights offset="23907394" size="262144"/>
            <biases offset="24169538" size="512"/>
        </layer>
        <layer name="res5b_relu_conv1_1_relu" type="ReLU" precision="FP16" id="101">
            <data negative_slope="0.000000" engine="caffe.ReLUParameter.DEFAULT"/>
            <input>
                <port id="209">
                    <dim>1</dim>
                    <dim>256</dim>
                    <dim>10</dim>
                    <dim>10</dim>
                </port>
            </input>
            <output>
                <port id="210">
                    <dim>1</dim>
                    <dim>256</dim>
                    <dim>10</dim>
                    <dim>10</dim>
                </port>
            </output>
        </layer>
        <layer name="res5b_relu_conv1_2" type="Convolution" precision="FP16" id="102">
            <convolution_data stride-x="2" stride-y="2" pad-x="1" pad-y="1" kernel-x="3" kernel-y="3" output="512" group="1"/>
            <input>
                <port id="211">
                    <dim>1</dim>
                    <dim>256</dim>
                    <dim>10</dim>
                    <dim>10</dim>
                </port>
            </input>
            <output>
                <port id="212">
                    <dim>1</dim>
                    <dim>512</dim>
                    <dim>5</dim>
                    <dim>5</dim>
                </port>
            </output>
            <weights offset="24170050" size="2359296"/>
            <biases offset="26529346" size="1024"/>
        </layer>
        <layer name="res5b_relu_conv1_2_relu" type="ReLU" precision="FP16" id="105">
            <data negative_slope="0.000000" engine="caffe.ReLUParameter.DEFAULT"/>
            <input>
                <port id="217">
                    <dim>1</dim>
                    <dim>512</dim>
                    <dim>5</dim>
                    <dim>5</dim>
                </port>
            </input>
            <output>
                <port id="218">
                    <dim>1</dim>
                    <dim>512</dim>
                    <dim>5</dim>
                    <dim>5</dim>
                </port>
            </output>
        </layer>
        <layer name="res5b_relu_conv1_2_mbox_priorbox" type="PriorBox" precision="FP16" id="143">
            <data min_size="114.000000" max_size="168.000000" aspect_ratio="2.000000,3.000000" flip="1" clip="1" variance="0.100000,0.100000,0.200000,0.200000" img_size="0" img_h="0" img_w="0" step="0.000000" step_h="0.000000" step_w="0.000000" offset="0.500000" width="" height=""/>
            <input>
                <port id="295">
                    <dim>1</dim>
                    <dim>512</dim>
                    <dim>5</dim>
                    <dim>5</dim>
                </port>
                <port id="296">
                    <dim>1</dim>
                    <dim>3</dim>
                    <dim>300</dim>
                    <dim>300</dim>
                </port>
            </input>
            <output>
                <port id="297">
                    <dim>1</dim>
                    <dim>2</dim>
                    <dim>600</dim>
                </port>
            </output>
        </layer>
        <layer name="res5b_relu_conv1_2_mbox_conf" type="Convolution" precision="FP16" id="140">
            <convolution_data stride-x="1" stride-y="1" pad-x="1" pad-y="1" kernel-x="3" kernel-y="3" output="126" group="1"/>
            <input>
                <port id="289">
                    <dim>1</dim>
                    <dim>512</dim>
                    <dim>5</dim>
                    <dim>5</dim>
                </port>
            </input>
            <output>
                <port id="290">
                    <dim>1</dim>
                    <dim>126</dim>
                    <dim>5</dim>
                    <dim>5</dim>
                </port>
            </output>
            <weights offset="26530370" size="1161216"/>
            <biases offset="27691586" size="252"/>
        </layer>
        <layer name="res5b_relu_conv1_2_mbox_conf_perm" type="Permute" precision="FP16" id="141">
            <data order="0,2,3,1"/>
            <input>
                <port id="291">
                    <dim>1</dim>
                    <dim>126</dim>
                    <dim>5</dim>
                    <dim>5</dim>
                </port>
            </input>
            <output>
                <port id="292">
                    <dim>1</dim>
                    <dim>5</dim>
                    <dim>5</dim>
                    <dim>126</dim>
                </port>
            </output>
        </layer>
        <layer name="res5b_relu_conv1_2_mbox_conf_flat" type="Flatten" precision="FP16" id="142">
            <data axis="1" end_axis="-1"/>
            <input>
                <port id="293">
                    <dim>1</dim>
                    <dim>5</dim>
                    <dim>5</dim>
                    <dim>126</dim>
                </port>
            </input>
            <output>
                <port id="294">
                    <dim>1</dim>
                    <dim>3150</dim>
                </port>
            </output>
        </layer>
        <layer name="res5b_relu_conv1_2_mbox_loc" type="Convolution" precision="FP16" id="137">
            <convolution_data stride-x="1" stride-y="1" pad-x="1" pad-y="1" kernel-x="3" kernel-y="3" output="24" group="1"/>
            <input>
                <port id="283">
                    <dim>1</dim>
                    <dim>512</dim>
                    <dim>5</dim>
                    <dim>5</dim>
                </port>
            </input>
            <output>
                <port id="284">
                    <dim>1</dim>
                    <dim>24</dim>
                    <dim>5</dim>
                    <dim>5</dim>
                </port>
            </output>
            <weights offset="27691838" size="221184"/>
            <biases offset="27913022" size="48"/>
        </layer>
        <layer name="res5b_relu_conv1_2_mbox_loc_perm" type="Permute" precision="FP16" id="138">
            <data order="0,2,3,1"/>
            <input>
                <port id="285">
                    <dim>1</dim>
                    <dim>24</dim>
                    <dim>5</dim>
                    <dim>5</dim>
                </port>
            </input>
            <output>
                <port id="286">
                    <dim>1</dim>
                    <dim>5</dim>
                    <dim>5</dim>
                    <dim>24</dim>
                </port>
            </output>
        </layer>
        <layer name="res5b_relu_conv1_2_mbox_loc_flat" type="Flatten" precision="FP16" id="139">
            <data axis="1" end_axis="-1"/>
            <input>
                <port id="287">
                    <dim>1</dim>
                    <dim>5</dim>
                    <dim>5</dim>
                    <dim>24</dim>
                </port>
            </input>
            <output>
                <port id="288">
                    <dim>1</dim>
                    <dim>600</dim>
                </port>
            </output>
        </layer>
        <layer name="res5b_relu_conv2_1" type="Convolution" precision="FP16" id="106">
            <convolution_data stride-x="1" stride-y="1" pad-x="0" pad-y="0" kernel-x="1" kernel-y="1" output="256" group="1"/>
            <input>
                <port id="219">
                    <dim>1</dim>
                    <dim>512</dim>
                    <dim>5</dim>
                    <dim>5</dim>
                </port>
            </input>
            <output>
                <port id="220">
                    <dim>1</dim>
                    <dim>256</dim>
                    <dim>5</dim>
                    <dim>5</dim>
                </port>
            </output>
            <weights offset="27913070" size="262144"/>
            <biases offset="28175214" size="512"/>
        </layer>
        <layer name="res5b_relu_conv2_1_relu" type="ReLU" precision="FP16" id="109">
            <data negative_slope="0.000000" engine="caffe.ReLUParameter.DEFAULT"/>
            <input>
                <port id="225">
                    <dim>1</dim>
                    <dim>256</dim>
                    <dim>5</dim>
                    <dim>5</dim>
                </port>
            </input>
            <output>
                <port id="226">
                    <dim>1</dim>
                    <dim>256</dim>
                    <dim>5</dim>
                    <dim>5</dim>
                </port>
            </output>
        </layer>
        <layer name="res5b_relu_conv2_2" type="Convolution" precision="FP16" id="110">
            <convolution_data stride-x="2" stride-y="2" pad-x="1" pad-y="1" kernel-x="3" kernel-y="3" output="512" group="1"/>
            <input>
                <port id="227">
                    <dim>1</dim>
                    <dim>256</dim>
                    <dim>5</dim>
                    <dim>5</dim>
                </port>
            </input>
            <output>
                <port id="228">
                    <dim>1</dim>
                    <dim>512</dim>
                    <dim>3</dim>
                    <dim>3</dim>
                </port>
            </output>
            <weights offset="28175726" size="2359296"/>
            <biases offset="30535022" size="1024"/>
        </layer>
        <layer name="res5b_relu_conv2_2_relu" type="ReLU" precision="FP16" id="113">
            <data negative_slope="0.000000" engine="caffe.ReLUParameter.DEFAULT"/>
            <input>
                <port id="233">
                    <dim>1</dim>
                    <dim>512</dim>
                    <dim>3</dim>
                    <dim>3</dim>
                </port>
            </input>
            <output>
                <port id="234">
                    <dim>1</dim>
                    <dim>512</dim>
                    <dim>3</dim>
                    <dim>3</dim>
                </port>
            </output>
        </layer>
        <layer name="res5b_relu_conv2_2_mbox_priorbox" type="PriorBox" precision="FP16" id="150">
            <data min_size="168.000000" max_size="222.000000" aspect_ratio="2.000000,3.000000" flip="1" clip="1" variance="0.100000,0.100000,0.200000,0.200000" img_size="0" img_h="0" img_w="0" step="0.000000" step_h="0.000000" step_w="0.000000" offset="0.500000" width="" height=""/>
            <input>
                <port id="310">
                    <dim>1</dim>
                    <dim>512</dim>
                    <dim>3</dim>
                    <dim>3</dim>
                </port>
                <port id="311">
                    <dim>1</dim>
                    <dim>3</dim>
                    <dim>300</dim>
                    <dim>300</dim>
                </port>
            </input>
            <output>
                <port id="312">
                    <dim>1</dim>
                    <dim>2</dim>
                    <dim>216</dim>
                </port>
            </output>
        </layer>
        <layer name="res5b_relu_conv2_2_mbox_conf" type="Convolution" precision="FP16" id="147">
            <convolution_data stride-x="1" stride-y="1" pad-x="1" pad-y="1" kernel-x="3" kernel-y="3" output="126" group="1"/>
            <input>
                <port id="304">
                    <dim>1</dim>
                    <dim>512</dim>
                    <dim>3</dim>
                    <dim>3</dim>
                </port>
            </input>
            <output>
                <port id="305">
                    <dim>1</dim>
                    <dim>126</dim>
                    <dim>3</dim>
                    <dim>3</dim>
                </port>
            </output>
            <weights offset="30536046" size="1161216"/>
            <biases offset="31697262" size="252"/>
        </layer>
        <layer name="res5b_relu_conv2_2_mbox_conf_perm" type="Permute" precision="FP16" id="148">
            <data order="0,2,3,1"/>
            <input>
                <port id="306">
                    <dim>1</dim>
                    <dim>126</dim>
                    <dim>3</dim>
                    <dim>3</dim>
                </port>
            </input>
            <output>
                <port id="307">
                    <dim>1</dim>
                    <dim>3</dim>
                    <dim>3</dim>
                    <dim>126</dim>
                </port>
            </output>
        </layer>
        <layer name="res5b_relu_conv2_2_mbox_conf_flat" type="Flatten" precision="FP16" id="149">
            <data axis="1" end_axis="-1"/>
            <input>
                <port id="308">
                    <dim>1</dim>
                    <dim>3</dim>
                    <dim>3</dim>
                    <dim>126</dim>
                </port>
            </input>
            <output>
                <port id="309">
                    <dim>1</dim>
                    <dim>1134</dim>
                </port>
            </output>
        </layer>
        <layer name="res5b_relu_conv2_2_mbox_loc" type="Convolution" precision="FP16" id="144">
            <convolution_data stride-x="1" stride-y="1" pad-x="1" pad-y="1" kernel-x="3" kernel-y="3" output="24" group="1"/>
            <input>
                <port id="298">
                    <dim>1</dim>
                    <dim>512</dim>
                    <dim>3</dim>
                    <dim>3</dim>
                </port>
            </input>
            <output>
                <port id="299">
                    <dim>1</dim>
                    <dim>24</dim>
                    <dim>3</dim>
                    <dim>3</dim>
                </port>
            </output>
            <weights offset="31697514" size="221184"/>
            <biases offset="31918698" size="48"/>
        </layer>
        <layer name="res5b_relu_conv2_2_mbox_loc_perm" type="Permute" precision="FP16" id="145">
            <data order="0,2,3,1"/>
            <input>
                <port id="300">
                    <dim>1</dim>
                    <dim>24</dim>
                    <dim>3</dim>
                    <dim>3</dim>
                </port>
            </input>
            <output>
                <port id="301">
                    <dim>1</dim>
                    <dim>3</dim>
                    <dim>3</dim>
                    <dim>24</dim>
                </port>
            </output>
        </layer>
        <layer name="res5b_relu_conv2_2_mbox_loc_flat" type="Flatten" precision="FP16" id="146">
            <data axis="1" end_axis="-1"/>
            <input>
                <port id="302">
                    <dim>1</dim>
                    <dim>3</dim>
                    <dim>3</dim>
                    <dim>24</dim>
                </port>
            </input>
            <output>
                <port id="303">
                    <dim>1</dim>
                    <dim>216</dim>
                </port>
            </output>
        </layer>
        <layer name="res5b_relu_conv3_1" type="Convolution" precision="FP16" id="114">
            <convolution_data stride-x="1" stride-y="1" pad-x="0" pad-y="0" kernel-x="1" kernel-y="1" output="256" group="1"/>
            <input>
                <port id="235">
                    <dim>1</dim>
                    <dim>512</dim>
                    <dim>3</dim>
                    <dim>3</dim>
                </port>
            </input>
            <output>
                <port id="236">
                    <dim>1</dim>
                    <dim>256</dim>
                    <dim>3</dim>
                    <dim>3</dim>
                </port>
            </output>
            <weights offset="31918746" size="262144"/>
            <biases offset="32180890" size="512"/>
        </layer>
        <layer name="res5b_relu_conv3_1_relu" type="ReLU" precision="FP16" id="117">
            <data negative_slope="0.000000" engine="caffe.ReLUParameter.DEFAULT"/>
            <input>
                <port id="241">
                    <dim>1</dim>
                    <dim>256</dim>
                    <dim>3</dim>
                    <dim>3</dim>
                </port>
            </input>
            <output>
                <port id="242">
                    <dim>1</dim>
                    <dim>256</dim>
                    <dim>3</dim>
                    <dim>3</dim>
                </port>
            </output>
        </layer>
        <layer name="res5b_relu_conv3_2" type="Convolution" precision="FP16" id="118">
            <convolution_data stride-x="2" stride-y="2" pad-x="1" pad-y="1" kernel-x="3" kernel-y="3" output="512" group="1"/>
            <input>
                <port id="243">
                    <dim>1</dim>
                    <dim>256</dim>
                    <dim>3</dim>
                    <dim>3</dim>
                </port>
            </input>
            <output>
                <port id="244">
                    <dim>1</dim>
                    <dim>512</dim>
                    <dim>2</dim>
                    <dim>2</dim>
                </port>
            </output>
            <weights offset="32181402" size="2359296"/>
            <biases offset="34540698" size="1024"/>
        </layer>
        <layer name="res5b_relu_conv3_2_relu" type="ReLU" precision="FP16" id="121">
            <data negative_slope="0.000000" engine="caffe.ReLUParameter.DEFAULT"/>
            <input>
                <port id="249">
                    <dim>1</dim>
                    <dim>512</dim>
                    <dim>2</dim>
                    <dim>2</dim>
                </port>
            </input>
            <output>
                <port id="250">
                    <dim>1</dim>
                    <dim>512</dim>
                    <dim>2</dim>
                    <dim>2</dim>
                </port>
            </output>
        </layer>
        <layer name="res5b_relu_conv3_2_mbox_priorbox" type="PriorBox" precision="FP16" id="157">
            <data min_size="222.000000" max_size="276.000000" aspect_ratio="2.000000,3.000000" flip="1" clip="1" variance="0.100000,0.100000,0.200000,0.200000" img_size="0" img_h="0" img_w="0" step="0.000000" step_h="0.000000" step_w="0.000000" offset="0.500000" width="" height=""/>
            <input>
                <port id="325">
                    <dim>1</dim>
                    <dim>512</dim>
                    <dim>2</dim>
                    <dim>2</dim>
                </port>
                <port id="326">
                    <dim>1</dim>
                    <dim>3</dim>
                    <dim>300</dim>
                    <dim>300</dim>
                </port>
            </input>
            <output>
                <port id="327">
                    <dim>1</dim>
                    <dim>2</dim>
                    <dim>96</dim>
                </port>
            </output>
        </layer>
        <layer name="res5b_relu_conv3_2_mbox_conf" type="Convolution" precision="FP16" id="154">
            <convolution_data stride-x="1" stride-y="1" pad-x="1" pad-y="1" kernel-x="3" kernel-y="3" output="126" group="1"/>
            <input>
                <port id="319">
                    <dim>1</dim>
                    <dim>512</dim>
                    <dim>2</dim>
                    <dim>2</dim>
                </port>
            </input>
            <output>
                <port id="320">
                    <dim>1</dim>
                    <dim>126</dim>
                    <dim>2</dim>
                    <dim>2</dim>
                </port>
            </output>
            <weights offset="34541722" size="1161216"/>
            <biases offset="35702938" size="252"/>
        </layer>
        <layer name="res5b_relu_conv3_2_mbox_conf_perm" type="Permute" precision="FP16" id="155">
            <data order="0,2,3,1"/>
            <input>
                <port id="321">
                    <dim>1</dim>
                    <dim>126</dim>
                    <dim>2</dim>
                    <dim>2</dim>
                </port>
            </input>
            <output>
                <port id="322">
                    <dim>1</dim>
                    <dim>2</dim>
                    <dim>2</dim>
                    <dim>126</dim>
                </port>
            </output>
        </layer>
        <layer name="res5b_relu_conv3_2_mbox_conf_flat" type="Flatten" precision="FP16" id="156">
            <data axis="1" end_axis="-1"/>
            <input>
                <port id="323">
                    <dim>1</dim>
                    <dim>2</dim>
                    <dim>2</dim>
                    <dim>126</dim>
                </port>
            </input>
            <output>
                <port id="324">
                    <dim>1</dim>
                    <dim>504</dim>
                </port>
            </output>
        </layer>
        <layer name="res5b_relu_conv3_2_mbox_loc" type="Convolution" precision="FP16" id="151">
            <convolution_data stride-x="1" stride-y="1" pad-x="1" pad-y="1" kernel-x="3" kernel-y="3" output="24" group="1"/>
            <input>
                <port id="313">
                    <dim>1</dim>
                    <dim>512</dim>
                    <dim>2</dim>
                    <dim>2</dim>
                </port>
            </input>
            <output>
                <port id="314">
                    <dim>1</dim>
                    <dim>24</dim>
                    <dim>2</dim>
                    <dim>2</dim>
                </port>
            </output>
            <weights offset="35703190" size="221184"/>
            <biases offset="35924374" size="48"/>
        </layer>
        <layer name="res5b_relu_conv3_2_mbox_loc_perm" type="Permute" precision="FP16" id="152">
            <data order="0,2,3,1"/>
            <input>
                <port id="315">
                    <dim>1</dim>
                    <dim>24</dim>
                    <dim>2</dim>
                    <dim>2</dim>
                </port>
            </input>
            <output>
                <port id="316">
                    <dim>1</dim>
                    <dim>2</dim>
                    <dim>2</dim>
                    <dim>24</dim>
                </port>
            </output>
        </layer>
        <layer name="res5b_relu_conv3_2_mbox_loc_flat" type="Flatten" precision="FP16" id="153">
            <data axis="1" end_axis="-1"/>
            <input>
                <port id="317">
                    <dim>1</dim>
                    <dim>2</dim>
                    <dim>2</dim>
                    <dim>24</dim>
                </port>
            </input>
            <output>
                <port id="318">
                    <dim>1</dim>
                    <dim>96</dim>
                </port>
            </output>
        </layer>
        <layer name="pool6" type="Pooling" precision="FP16" id="122">
            <pooling_data kernel-x="2" kernel-y="2" pad-x="0" pad-y="0" stride-x="1" stride-y="1" rounding-type="ceil" pool-method="avg"/>
            <input>
                <port id="251">
                    <dim>1</dim>
                    <dim>512</dim>
                    <dim>2</dim>
                    <dim>2</dim>
                </port>
            </input>
            <output>
                <port id="252">
                    <dim>1</dim>
                    <dim>512</dim>
                    <dim>1</dim>
                    <dim>1</dim>
                </port>
            </output>
        </layer>
        <layer name="pool6_mbox_priorbox" type="PriorBox" precision="FP16" id="164">
            <data min_size="276.000000" max_size="330.000000" aspect_ratio="2.000000,3.000000" flip="1" clip="1" variance="0.100000,0.100000,0.200000,0.200000" img_size="0" img_h="0" img_w="0" step="0.000000" step_h="0.000000" step_w="0.000000" offset="0.500000" width="" height=""/>
            <input>
                <port id="340">
                    <dim>1</dim>
                    <dim>512</dim>
                    <dim>1</dim>
                    <dim>1</dim>
                </port>
                <port id="341">
                    <dim>1</dim>
                    <dim>3</dim>
                    <dim>300</dim>
                    <dim>300</dim>
                </port>
            </input>
            <output>
                <port id="342">
                    <dim>1</dim>
                    <dim>2</dim>
                    <dim>24</dim>
                </port>
            </output>
        </layer>
        <layer name="mbox_priorbox" type="Concat" precision="FP16" id="167">
            <concat_data axis="2"/>
            <input>
                <port id="357">
                    <dim>1</dim>
                    <dim>2</dim>
                    <dim>17328</dim>
                </port>
                <port id="358">
                    <dim>1</dim>
                    <dim>2</dim>
                    <dim>2400</dim>
                </port>
                <port id="359">
                    <dim>1</dim>
                    <dim>2</dim>
                    <dim>600</dim>
                </port>
                <port id="360">
                    <dim>1</dim>
                    <dim>2</dim>
                    <dim>216</dim>
                </port>
                <port id="361">
                    <dim>1</dim>
                    <dim>2</dim>
                    <dim>96</dim>
                </port>
                <port id="362">
                    <dim>1</dim>
                    <dim>2</dim>
                    <dim>24</dim>
                </port>
            </input>
            <output>
                <port id="363">
                    <dim>1</dim>
                    <dim>2</dim>
                    <dim>20664</dim>
                </port>
            </output>
        </layer>
        <layer name="pool6_mbox_conf" type="Convolution" precision="FP16" id="161">
            <convolution_data stride-x="1" stride-y="1" pad-x="1" pad-y="1" kernel-x="3" kernel-y="3" output="126" group="1"/>
            <input>
                <port id="334">
                    <dim>1</dim>
                    <dim>512</dim>
                    <dim>1</dim>
                    <dim>1</dim>
                </port>
            </input>
            <output>
                <port id="335">
                    <dim>1</dim>
                    <dim>126</dim>
                    <dim>1</dim>
                    <dim>1</dim>
                </port>
            </output>
            <weights offset="35924422" size="1161216"/>
            <biases offset="37085638" size="252"/>
        </layer>
        <layer name="pool6_mbox_conf_perm" type="Permute" precision="FP16" id="162">
            <data order="0,2,3,1"/>
            <input>
                <port id="336">
                    <dim>1</dim>
                    <dim>126</dim>
                    <dim>1</dim>
                    <dim>1</dim>
                </port>
            </input>
            <output>
                <port id="337">
                    <dim>1</dim>
                    <dim>1</dim>
                    <dim>1</dim>
                    <dim>126</dim>
                </port>
            </output>
        </layer>
        <layer name="pool6_mbox_conf_flat" type="Flatten" precision="FP16" id="163">
            <data axis="1" end_axis="-1"/>
            <input>
                <port id="338">
                    <dim>1</dim>
                    <dim>1</dim>
                    <dim>1</dim>
                    <dim>126</dim>
                </port>
            </input>
            <output>
                <port id="339">
                    <dim>1</dim>
                    <dim>126</dim>
                </port>
            </output>
        </layer>
        <layer name="mbox_conf" type="Concat" precision="FP16" id="166">
            <concat_data axis="1"/>
            <input>
                <port id="350">
                    <dim>1</dim>
                    <dim>90972</dim>
                </port>
                <port id="351">
                    <dim>1</dim>
                    <dim>12600</dim>
                </port>
                <port id="352">
                    <dim>1</dim>
                    <dim>3150</dim>
                </port>
                <port id="353">
                    <dim>1</dim>
                    <dim>1134</dim>
                </port>
                <port id="354">
                    <dim>1</dim>
                    <dim>504</dim>
                </port>
                <port id="355">
                    <dim>1</dim>
                    <dim>126</dim>
                </port>
            </input>
            <output>
                <port id="356">
                    <dim>1</dim>
                    <dim>108486</dim>
                </port>
            </output>
        </layer>
        <layer name="mbox_conf_reshape" type="Reshape" precision="FP16" id="168">
            <data dim="0,-1,21" axis="0" num_axes="-1"/>
            <input>
                <port id="364">
                    <dim>1</dim>
                    <dim>108486</dim>
                </port>
            </input>
            <output>
                <port id="365">
                    <dim>1</dim>
                    <dim>5166</dim>
                    <dim>21</dim>
                </port>
            </output>
        </layer>
        <layer name="mbox_conf_softmax" type="SoftMax" precision="FP16" id="169">
            <softmax_data axis="2"/>
            <input>
                <port id="366">
                    <dim>1</dim>
                    <dim>5166</dim>
                    <dim>21</dim>
                </port>
            </input>
            <output>
                <port id="367">
                    <dim>1</dim>
                    <dim>5166</dim>
                    <dim>21</dim>
                </port>
            </output>
        </layer>
        <layer name="mbox_conf_flatten" type="Flatten" precision="FP16" id="170">
            <data axis="1" end_axis="-1"/>
            <input>
                <port id="368">
                    <dim>1</dim>
                    <dim>5166</dim>
                    <dim>21</dim>
                </port>
            </input>
            <output>
                <port id="369">
                    <dim>1</dim>
                    <dim>108486</dim>
                </port>
            </output>
        </layer>
        <layer name="pool6_mbox_loc" type="Convolution" precision="FP16" id="158">
            <convolution_data stride-x="1" stride-y="1" pad-x="1" pad-y="1" kernel-x="3" kernel-y="3" output="24" group="1"/>
            <input>
                <port id="328">
                    <dim>1</dim>
                    <dim>512</dim>
                    <dim>1</dim>
                    <dim>1</dim>
                </port>
            </input>
            <output>
                <port id="329">
                    <dim>1</dim>
                    <dim>24</dim>
                    <dim>1</dim>
                    <dim>1</dim>
                </port>
            </output>
            <weights offset="37085890" size="221184"/>
            <biases offset="37307074" size="48"/>
        </layer>
        <layer name="pool6_mbox_loc_perm" type="Permute" precision="FP16" id="159">
            <data order="0,2,3,1"/>
            <input>
                <port id="330">
                    <dim>1</dim>
                    <dim>24</dim>
                    <dim>1</dim>
                    <dim>1</dim>
                </port>
            </input>
            <output>
                <port id="331">
                    <dim>1</dim>
                    <dim>1</dim>
                    <dim>1</dim>
                    <dim>24</dim>
                </port>
            </output>
        </layer>
        <layer name="pool6_mbox_loc_flat" type="Flatten" precision="FP16" id="160">
            <data axis="1" end_axis="-1"/>
            <input>
                <port id="332">
                    <dim>1</dim>
                    <dim>1</dim>
                    <dim>1</dim>
                    <dim>24</dim>
                </port>
            </input>
            <output>
                <port id="333">
                    <dim>1</dim>
                    <dim>24</dim>
                </port>
            </output>
        </layer>
        <layer name="mbox_loc" type="Concat" precision="FP16" id="165">
            <concat_data axis="1"/>
            <input>
                <port id="343">
                    <dim>1</dim>
                    <dim>17328</dim>
                </port>
                <port id="344">
                    <dim>1</dim>
                    <dim>2400</dim>
                </port>
                <port id="345">
                    <dim>1</dim>
                    <dim>600</dim>
                </port>
                <port id="346">
                    <dim>1</dim>
                    <dim>216</dim>
                </port>
                <port id="347">
                    <dim>1</dim>
                    <dim>96</dim>
                </port>
                <port id="348">
                    <dim>1</dim>
                    <dim>24</dim>
                </port>
            </input>
            <output>
                <port id="349">
                    <dim>1</dim>
                    <dim>20664</dim>
                </port>
            </output>
        </layer>
        <layer name="detection_out" type="DetectionOutput" precision="FP16" id="171">
            <data num_classes="21" share_location="1" background_label_id="0" nms_threshold="0.450000" top_k="400" eta="1.000000" output_directory="" output_name_prefix="" output_format="" label_map_file="" name_size_file="" num_test_image="0" prob="1.000000" resize_mode="caffe.ResizeParameter.WARP" height="0" width="0" height_scale="0" width_scale="0" pad_mode="caffe.ResizeParameter.CONSTANT" pad_value="" interp_mode="" code_type="caffe.PriorBoxParameter.CORNER" variance_encoded_in_target="0" keep_top_k="200" confidence_threshold="0.000000" visualize="0" visualize_threshold="0.000000" save_file="" input_width="-1" input_height="-1" normalized="1"/>
            <input>
                <port id="370">
                    <dim>1</dim>
                    <dim>20664</dim>
                </port>
                <port id="371">
                    <dim>1</dim>
                    <dim>108486</dim>
                </port>
                <port id="372">
                    <dim>1</dim>
                    <dim>2</dim>
                    <dim>20664</dim>
                </port>
            </input>
            <output>
                <port id="373">
                    <dim>1</dim>
                    <dim>1</dim>
                    <dim>200</dim>
                    <dim>7</dim>
                </port>
            </output>
        </layer>
    </layers>
    <edges>
        <edge from-layer="0" from-port="0" to-layer="1" to-port="1"/>
        <edge from-layer="4" from-port="8" to-layer="5" to-port="9"/>
        <edge from-layer="5" from-port="10" to-layer="6" to-port="11"/>
        <edge from-layer="5" from-port="10" to-layer="9" to-port="17"/>
        <edge from-layer="12" from-port="24" to-layer="13" to-port="25"/>
        <edge from-layer="16" from-port="32" to-layer="17" to-port="34"/>
        <edge from-layer="17" from-port="35" to-layer="18" to-port="36"/>
        <edge from-layer="18" from-port="37" to-layer="19" to-port="38"/>
        <edge from-layer="22" from-port="45" to-layer="23" to-port="46"/>
        <edge from-layer="18" from-port="37" to-layer="27" to-port="54"/>
        <edge from-layer="26" from-port="53" to-layer="27" to-port="55"/>
        <edge from-layer="27" from-port="56" to-layer="28" to-port="57"/>
        <edge from-layer="28" from-port="58" to-layer="29" to-port="59"/>
        <edge from-layer="28" from-port="58" to-layer="32" to-port="65"/>
        <edge from-layer="35" from-port="72" to-layer="36" to-port="73"/>
        <edge from-layer="39" from-port="80" to-layer="40" to-port="82"/>
        <edge from-layer="40" from-port="83" to-layer="41" to-port="84"/>
        <edge from-layer="41" from-port="85" to-layer="42" to-port="86"/>
        <edge from-layer="45" from-port="93" to-layer="46" to-port="94"/>
        <edge from-layer="41" from-port="85" to-layer="50" to-port="102"/>
        <edge from-layer="49" from-port="101" to-layer="50" to-port="103"/>
        <edge from-layer="50" from-port="104" to-layer="51" to-port="105"/>
        <edge from-layer="51" from-port="106" to-layer="52" to-port="107"/>
        <edge from-layer="51" from-port="106" to-layer="55" to-port="113"/>
        <edge from-layer="58" from-port="120" to-layer="59" to-port="121"/>
        <edge from-layer="62" from-port="128" to-layer="63" to-port="130"/>
        <edge from-layer="63" from-port="131" to-layer="64" to-port="132"/>
        <edge from-layer="64" from-port="133" to-layer="65" to-port="134"/>
        <edge from-layer="68" from-port="141" to-layer="69" to-port="142"/>
        <edge from-layer="64" from-port="133" to-layer="73" to-port="150"/>
        <edge from-layer="72" from-port="149" to-layer="73" to-port="151"/>
        <edge from-layer="73" from-port="152" to-layer="74" to-port="153"/>
        <edge from-layer="74" from-port="154" to-layer="75" to-port="155"/>
        <edge from-layer="74" from-port="154" to-layer="78" to-port="161"/>
        <edge from-layer="81" from-port="168" to-layer="82" to-port="169"/>
        <edge from-layer="85" from-port="176" to-layer="86" to-port="178"/>
        <edge from-layer="86" from-port="179" to-layer="87" to-port="180"/>
        <edge from-layer="87" from-port="181" to-layer="88" to-port="182"/>
        <edge from-layer="91" from-port="189" to-layer="92" to-port="190"/>
        <edge from-layer="87" from-port="181" to-layer="96" to-port="198"/>
        <edge from-layer="95" from-port="197" to-layer="96" to-port="199"/>
        <edge from-layer="96" from-port="200" to-layer="97" to-port="201"/>
        <edge from-layer="97" from-port="202" to-layer="98" to-port="203"/>
        <edge from-layer="101" from-port="210" to-layer="102" to-port="211"/>
        <edge from-layer="105" from-port="218" to-layer="106" to-port="219"/>
        <edge from-layer="109" from-port="226" to-layer="110" to-port="227"/>
        <edge from-layer="113" from-port="234" to-layer="114" to-port="235"/>
        <edge from-layer="117" from-port="242" to-layer="118" to-port="243"/>
        <edge from-layer="121" from-port="250" to-layer="122" to-port="251"/>
        <edge from-layer="41" from-port="85" to-layer="123" to-port="253"/>
        <edge from-layer="123" from-port="254" to-layer="124" to-port="255"/>
        <edge from-layer="124" from-port="256" to-layer="125" to-port="257"/>
        <edge from-layer="41" from-port="85" to-layer="126" to-port="259"/>
        <edge from-layer="126" from-port="260" to-layer="127" to-port="261"/>
        <edge from-layer="127" from-port="262" to-layer="128" to-port="263"/>
        <edge from-layer="41" from-port="85" to-layer="129" to-port="265"/>
        <edge from-layer="0" from-port="0" to-layer="129" to-port="266"/>
        <edge from-layer="97" from-port="202" to-layer="130" to-port="268"/>
        <edge from-layer="130" from-port="269" to-layer="131" to-port="270"/>
        <edge from-layer="131" from-port="271" to-layer="132" to-port="272"/>
        <edge from-layer="97" from-port="202" to-layer="133" to-port="274"/>
        <edge from-layer="133" from-port="275" to-layer="134" to-port="276"/>
        <edge from-layer="134" from-port="277" to-layer="135" to-port="278"/>
        <edge from-layer="97" from-port="202" to-layer="136" to-port="280"/>
        <edge from-layer="0" from-port="0" to-layer="136" to-port="281"/>
        <edge from-layer="105" from-port="218" to-layer="137" to-port="283"/>
        <edge from-layer="137" from-port="284" to-layer="138" to-port="285"/>
        <edge from-layer="138" from-port="286" to-layer="139" to-port="287"/>
        <edge from-layer="105" from-port="218" to-layer="140" to-port="289"/>
        <edge from-layer="140" from-port="290" to-layer="141" to-port="291"/>
        <edge from-layer="141" from-port="292" to-layer="142" to-port="293"/>
        <edge from-layer="105" from-port="218" to-layer="143" to-port="295"/>
        <edge from-layer="0" from-port="0" to-layer="143" to-port="296"/>
        <edge from-layer="113" from-port="234" to-layer="144" to-port="298"/>
        <edge from-layer="144" from-port="299" to-layer="145" to-port="300"/>
        <edge from-layer="145" from-port="301" to-layer="146" to-port="302"/>
        <edge from-layer="113" from-port="234" to-layer="147" to-port="304"/>
        <edge from-layer="147" from-port="305" to-layer="148" to-port="306"/>
        <edge from-layer="148" from-port="307" to-layer="149" to-port="308"/>
        <edge from-layer="113" from-port="234" to-layer="150" to-port="310"/>
        <edge from-layer="0" from-port="0" to-layer="150" to-port="311"/>
        <edge from-layer="121" from-port="250" to-layer="151" to-port="313"/>
        <edge from-layer="151" from-port="314" to-layer="152" to-port="315"/>
        <edge from-layer="152" from-port="316" to-layer="153" to-port="317"/>
        <edge from-layer="121" from-port="250" to-layer="154" to-port="319"/>
        <edge from-layer="154" from-port="320" to-layer="155" to-port="321"/>
        <edge from-layer="155" from-port="322" to-layer="156" to-port="323"/>
        <edge from-layer="121" from-port="250" to-layer="157" to-port="325"/>
        <edge from-layer="0" from-port="0" to-layer="157" to-port="326"/>
        <edge from-layer="122" from-port="252" to-layer="158" to-port="328"/>
        <edge from-layer="158" from-port="329" to-layer="159" to-port="330"/>
        <edge from-layer="159" from-port="331" to-layer="160" to-port="332"/>
        <edge from-layer="122" from-port="252" to-layer="161" to-port="334"/>
        <edge from-layer="161" from-port="335" to-layer="162" to-port="336"/>
        <edge from-layer="162" from-port="337" to-layer="163" to-port="338"/>
        <edge from-layer="122" from-port="252" to-layer="164" to-port="340"/>
        <edge from-layer="0" from-port="0" to-layer="164" to-port="341"/>
        <edge from-layer="125" from-port="258" to-layer="165" to-port="343"/>
        <edge from-layer="132" from-port="273" to-layer="165" to-port="344"/>
        <edge from-layer="139" from-port="288" to-layer="165" to-port="345"/>
        <edge from-layer="146" from-port="303" to-layer="165" to-port="346"/>
        <edge from-layer="153" from-port="318" to-layer="165" to-port="347"/>
        <edge from-layer="160" from-port="333" to-layer="165" to-port="348"/>
        <edge from-layer="128" from-port="264" to-layer="166" to-port="350"/>
        <edge from-layer="135" from-port="279" to-layer="166" to-port="351"/>
        <edge from-layer="142" from-port="294" to-layer="166" to-port="352"/>
        <edge from-layer="149" from-port="309" to-layer="166" to-port="353"/>
        <edge from-layer="156" from-port="324" to-layer="166" to-port="354"/>
        <edge from-layer="163" from-port="339" to-layer="166" to-port="355"/>
        <edge from-layer="129" from-port="267" to-layer="167" to-port="357"/>
        <edge from-layer="136" from-port="282" to-layer="167" to-port="358"/>
        <edge from-layer="143" from-port="297" to-layer="167" to-port="359"/>
        <edge from-layer="150" from-port="312" to-layer="167" to-port="360"/>
        <edge from-layer="157" from-port="327" to-layer="167" to-port="361"/>
        <edge from-layer="164" from-port="342" to-layer="167" to-port="362"/>
        <edge from-layer="166" from-port="356" to-layer="168" to-port="364"/>
        <edge from-layer="168" from-port="365" to-layer="169" to-port="366"/>
        <edge from-layer="169" from-port="367" to-layer="170" to-port="368"/>
        <edge from-layer="165" from-port="349" to-layer="171" to-port="370"/>
        <edge from-layer="170" from-port="369" to-layer="171" to-port="371"/>
        <edge from-layer="167" from-port="363" to-layer="171" to-port="372"/>
        <edge from-layer="1" from-port="2" to-layer="4" to-port="7"/>
        <edge from-layer="6" from-port="12" to-layer="17" to-port="33"/>
        <edge from-layer="9" from-port="18" to-layer="12" to-port="23"/>
        <edge from-layer="13" from-port="26" to-layer="16" to-port="31"/>
        <edge from-layer="19" from-port="39" to-layer="22" to-port="44"/>
        <edge from-layer="23" from-port="47" to-layer="26" to-port="52"/>
        <edge from-layer="29" from-port="60" to-layer="40" to-port="81"/>
        <edge from-layer="32" from-port="66" to-layer="35" to-port="71"/>
        <edge from-layer="36" from-port="74" to-layer="39" to-port="79"/>
        <edge from-layer="42" from-port="87" to-layer="45" to-port="92"/>
        <edge from-layer="46" from-port="95" to-layer="49" to-port="100"/>
        <edge from-layer="52" from-port="108" to-layer="63" to-port="129"/>
        <edge from-layer="55" from-port="114" to-layer="58" to-port="119"/>
        <edge from-layer="59" from-port="122" to-layer="62" to-port="127"/>
        <edge from-layer="65" from-port="135" to-layer="68" to-port="140"/>
        <edge from-layer="69" from-port="143" to-layer="72" to-port="148"/>
        <edge from-layer="75" from-port="156" to-layer="86" to-port="177"/>
        <edge from-layer="78" from-port="162" to-layer="81" to-port="167"/>
        <edge from-layer="82" from-port="170" to-layer="85" to-port="175"/>
        <edge from-layer="88" from-port="183" to-layer="91" to-port="188"/>
        <edge from-layer="92" from-port="191" to-layer="95" to-port="196"/>
        <edge from-layer="98" from-port="204" to-layer="101" to-port="209"/>
        <edge from-layer="102" from-port="212" to-layer="105" to-port="217"/>
        <edge from-layer="106" from-port="220" to-layer="109" to-port="225"/>
        <edge from-layer="110" from-port="228" to-layer="113" to-port="233"/>
        <edge from-layer="114" from-port="236" to-layer="117" to-port="241"/>
        <edge from-layer="118" from-port="244" to-layer="121" to-port="249"/>
    </edges>
</net>
